<?xml version="1.0"?>
<net name="Model3" version="11">
	<layers>
		<layer id="2" name="sample" type="Parameter" version="opset1">
			<data shape="?,4,?,?" element_type="f32" />
			<output>
				<port id="0" precision="FP32" names="sample">
					<dim>-1</dim>
					<dim>4</dim>
					<dim>-1</dim>
					<dim>-1</dim>
				</port>
			</output>
		</layer>
		<layer id="1" name="timestep" type="Parameter" version="opset1">
			<data shape="?" element_type="i64" />
			<output>
				<port id="0" precision="I64" names="timestep">
					<dim>-1</dim>
				</port>
			</output>
		</layer>
		<layer id="0" name="encoder_hidden_states" type="Parameter" version="opset1">
			<data shape="?,77,768" element_type="f32" />
			<output>
				<port id="0" precision="FP32" names="encoder_hidden_states">
					<dim>-1</dim>
					<dim>77</dim>
					<dim>768</dim>
				</port>
			</output>
		</layer>
		<layer id="3" name="self.conv_in.weight" type="Const" version="opset1">
			<data element_type="u8" shape="320, 4, 3, 3" offset="0" size="11520" />
			<output>
				<port id="0" precision="U8">
					<dim>320</dim>
					<dim>4</dim>
					<dim>3</dim>
					<dim>3</dim>
				</port>
			</output>
		</layer>
		<layer id="4" name="Convert_1637499" type="Convert" version="opset1">
			<data destination_type="f16" />
			<input>
				<port id="0" precision="U8">
					<dim>320</dim>
					<dim>4</dim>
					<dim>3</dim>
					<dim>3</dim>
				</port>
			</input>
			<output>
				<port id="1" precision="FP16">
					<dim>320</dim>
					<dim>4</dim>
					<dim>3</dim>
					<dim>3</dim>
				</port>
			</output>
		</layer>
		<layer id="5" name="self.conv_in.weight/zero_point" type="Const" version="opset1">
			<data element_type="u8" shape="320, 1, 1, 1" offset="11520" size="320" />
			<output>
				<port id="0" precision="U8">
					<dim>320</dim>
					<dim>1</dim>
					<dim>1</dim>
					<dim>1</dim>
				</port>
			</output>
		</layer>
		<layer id="6" name="Convert_1637502" type="Convert" version="opset1">
			<data destination_type="f16" />
			<input>
				<port id="0" precision="U8">
					<dim>320</dim>
					<dim>1</dim>
					<dim>1</dim>
					<dim>1</dim>
				</port>
			</input>
			<output>
				<port id="1" precision="FP16">
					<dim>320</dim>
					<dim>1</dim>
					<dim>1</dim>
					<dim>1</dim>
				</port>
			</output>
		</layer>
		<layer id="7" name="self.conv_in.weight/zero_point/subtract" type="Subtract" version="opset1">
			<data auto_broadcast="numpy" />
			<input>
				<port id="0" precision="FP16">
					<dim>320</dim>
					<dim>4</dim>
					<dim>3</dim>
					<dim>3</dim>
				</port>
				<port id="1" precision="FP16">
					<dim>320</dim>
					<dim>1</dim>
					<dim>1</dim>
					<dim>1</dim>
				</port>
			</input>
			<output>
				<port id="2" precision="FP16">
					<dim>320</dim>
					<dim>4</dim>
					<dim>3</dim>
					<dim>3</dim>
				</port>
			</output>
		</layer>
		<layer id="8" name="self.conv_in.weight/scale" type="Const" version="opset1">
			<data element_type="f16" shape="320, 1, 1, 1" offset="11840" size="640" />
			<output>
				<port id="0" precision="FP16">
					<dim>320</dim>
					<dim>1</dim>
					<dim>1</dim>
					<dim>1</dim>
				</port>
			</output>
		</layer>
		<layer id="9" name="self.conv_in.weight/fq_weights_1" type="Multiply" version="opset1">
			<data auto_broadcast="numpy" />
			<input>
				<port id="0" precision="FP16">
					<dim>320</dim>
					<dim>4</dim>
					<dim>3</dim>
					<dim>3</dim>
				</port>
				<port id="1" precision="FP16">
					<dim>320</dim>
					<dim>1</dim>
					<dim>1</dim>
					<dim>1</dim>
				</port>
			</input>
			<output>
				<port id="2" precision="FP16">
					<dim>320</dim>
					<dim>4</dim>
					<dim>3</dim>
					<dim>3</dim>
				</port>
			</output>
		</layer>
		<layer id="10" name="self.conv_in.weight/fq_weights_1/convert" type="Convert" version="opset1">
			<data destination_type="f32" />
			<input>
				<port id="0" precision="FP16">
					<dim>320</dim>
					<dim>4</dim>
					<dim>3</dim>
					<dim>3</dim>
				</port>
			</input>
			<output>
				<port id="1" precision="FP32">
					<dim>320</dim>
					<dim>4</dim>
					<dim>3</dim>
					<dim>3</dim>
				</port>
			</output>
		</layer>
		<layer id="11" name="__module.conv_in/aten::_convolution/Convolution" type="Convolution" version="opset1">
			<data strides="1, 1" dilations="1, 1" pads_begin="1, 1" pads_end="1, 1" auto_pad="explicit" />
			<input>
				<port id="0" precision="FP32">
					<dim>-1</dim>
					<dim>4</dim>
					<dim>-1</dim>
					<dim>-1</dim>
				</port>
				<port id="1" precision="FP32">
					<dim>320</dim>
					<dim>4</dim>
					<dim>3</dim>
					<dim>3</dim>
				</port>
			</input>
			<output>
				<port id="2" precision="FP32">
					<dim>-1</dim>
					<dim>320</dim>
					<dim>-1</dim>
					<dim>-1</dim>
				</port>
			</output>
		</layer>
		<layer id="12" name="__module.conv_in/aten::_convolution/Reshape" type="Const" version="opset1">
			<data element_type="f32" shape="1, 320, 1, 1" offset="12480" size="1280" />
			<output>
				<port id="0" precision="FP32">
					<dim>1</dim>
					<dim>320</dim>
					<dim>1</dim>
					<dim>1</dim>
				</port>
			</output>
		</layer>
		<layer id="13" name="__module.conv_in/aten::_convolution/Add" type="Add" version="opset1">
			<data auto_broadcast="numpy" />
			<input>
				<port id="0" precision="FP32">
					<dim>-1</dim>
					<dim>320</dim>
					<dim>-1</dim>
					<dim>-1</dim>
				</port>
				<port id="1" precision="FP32">
					<dim>1</dim>
					<dim>320</dim>
					<dim>1</dim>
					<dim>1</dim>
				</port>
			</input>
			<output>
				<port id="2" precision="FP32" names="145,input.7">
					<dim>-1</dim>
					<dim>320</dim>
					<dim>-1</dim>
					<dim>-1</dim>
				</port>
			</output>
		</layer>
		<layer id="14" name="self.down_blocks.0.resnets.0.norm1.weight" type="Const" version="opset1">
			<data element_type="f32" shape="320" offset="13760" size="1280" />
			<output>
				<port id="0" precision="FP32" names="self.down_blocks.0.resnets.0.norm1.weight">
					<dim>320</dim>
				</port>
			</output>
		</layer>
		<layer id="15" name="self.down_blocks.0.resnets.0.norm1.bias" type="Const" version="opset1">
			<data element_type="f32" shape="320" offset="15040" size="1280" />
			<output>
				<port id="0" precision="FP32" names="self.down_blocks.0.resnets.0.norm1.bias">
					<dim>320</dim>
				</port>
			</output>
		</layer>
		<layer id="16" name="__module.down_blocks.0.resnets.0.norm1/aten::group_norm/GroupNormalization" type="GroupNormalization" version="opset12">
			<data num_groups="32" epsilon="9.9999997473787516e-06" />
			<input>
				<port id="0" precision="FP32">
					<dim>-1</dim>
					<dim>320</dim>
					<dim>-1</dim>
					<dim>-1</dim>
				</port>
				<port id="1" precision="FP32">
					<dim>320</dim>
				</port>
				<port id="2" precision="FP32">
					<dim>320</dim>
				</port>
			</input>
			<output>
				<port id="3" precision="FP32" names="184,input.9">
					<dim>-1</dim>
					<dim>320</dim>
					<dim>-1</dim>
					<dim>-1</dim>
				</port>
			</output>
		</layer>
		<layer id="17" name="__module.down_blocks.0.resnets.0.nonlinearity/aten::silu/Swish" type="Swish" version="opset4">
			<input>
				<port id="0" precision="FP32">
					<dim>-1</dim>
					<dim>320</dim>
					<dim>-1</dim>
					<dim>-1</dim>
				</port>
			</input>
			<output>
				<port id="1" precision="FP32" names="185,input.11">
					<dim>-1</dim>
					<dim>320</dim>
					<dim>-1</dim>
					<dim>-1</dim>
				</port>
			</output>
		</layer>
		<layer id="18" name="self.down_blocks.0.resnets.0.conv1.weight" type="Const" version="opset1">
			<data element_type="u8" shape="320, 320, 3, 3" offset="16320" size="921600" />
			<output>
				<port id="0" precision="U8">
					<dim>320</dim>
					<dim>320</dim>
					<dim>3</dim>
					<dim>3</dim>
				</port>
			</output>
		</layer>
		<layer id="19" name="Convert_1053379" type="Convert" version="opset1">
			<data destination_type="f16" />
			<input>
				<port id="0" precision="U8">
					<dim>320</dim>
					<dim>320</dim>
					<dim>3</dim>
					<dim>3</dim>
				</port>
			</input>
			<output>
				<port id="1" precision="FP16">
					<dim>320</dim>
					<dim>320</dim>
					<dim>3</dim>
					<dim>3</dim>
				</port>
			</output>
		</layer>
		<layer id="20" name="self.down_blocks.0.resnets.0.conv1.weight/zero_point" type="Const" version="opset1">
			<data element_type="u8" shape="320, 1, 1, 1" offset="937920" size="320" />
			<output>
				<port id="0" precision="U8">
					<dim>320</dim>
					<dim>1</dim>
					<dim>1</dim>
					<dim>1</dim>
				</port>
			</output>
		</layer>
		<layer id="21" name="Convert_1053382" type="Convert" version="opset1">
			<data destination_type="f16" />
			<input>
				<port id="0" precision="U8">
					<dim>320</dim>
					<dim>1</dim>
					<dim>1</dim>
					<dim>1</dim>
				</port>
			</input>
			<output>
				<port id="1" precision="FP16">
					<dim>320</dim>
					<dim>1</dim>
					<dim>1</dim>
					<dim>1</dim>
				</port>
			</output>
		</layer>
		<layer id="22" name="self.down_blocks.0.resnets.0.conv1.weight/zero_point/subtract" type="Subtract" version="opset1">
			<data auto_broadcast="numpy" />
			<input>
				<port id="0" precision="FP16">
					<dim>320</dim>
					<dim>320</dim>
					<dim>3</dim>
					<dim>3</dim>
				</port>
				<port id="1" precision="FP16">
					<dim>320</dim>
					<dim>1</dim>
					<dim>1</dim>
					<dim>1</dim>
				</port>
			</input>
			<output>
				<port id="2" precision="FP16">
					<dim>320</dim>
					<dim>320</dim>
					<dim>3</dim>
					<dim>3</dim>
				</port>
			</output>
		</layer>
		<layer id="23" name="self.down_blocks.0.resnets.0.conv1.weight/scale" type="Const" version="opset1">
			<data element_type="f16" shape="320, 1, 1, 1" offset="938240" size="640" />
			<output>
				<port id="0" precision="FP16">
					<dim>320</dim>
					<dim>1</dim>
					<dim>1</dim>
					<dim>1</dim>
				</port>
			</output>
		</layer>
		<layer id="24" name="self.down_blocks.0.resnets.0.conv1.weight/fq_weights_1" type="Multiply" version="opset1">
			<data auto_broadcast="numpy" />
			<input>
				<port id="0" precision="FP16">
					<dim>320</dim>
					<dim>320</dim>
					<dim>3</dim>
					<dim>3</dim>
				</port>
				<port id="1" precision="FP16">
					<dim>320</dim>
					<dim>1</dim>
					<dim>1</dim>
					<dim>1</dim>
				</port>
			</input>
			<output>
				<port id="2" precision="FP16">
					<dim>320</dim>
					<dim>320</dim>
					<dim>3</dim>
					<dim>3</dim>
				</port>
			</output>
		</layer>
		<layer id="25" name="self.down_blocks.0.resnets.0.conv1.weight/fq_weights_1/convert" type="Convert" version="opset1">
			<data destination_type="f32" />
			<input>
				<port id="0" precision="FP16">
					<dim>320</dim>
					<dim>320</dim>
					<dim>3</dim>
					<dim>3</dim>
				</port>
			</input>
			<output>
				<port id="1" precision="FP32">
					<dim>320</dim>
					<dim>320</dim>
					<dim>3</dim>
					<dim>3</dim>
				</port>
			</output>
		</layer>
		<layer id="26" name="__module.down_blocks.0.resnets.0.conv1/aten::_convolution/Convolution" type="Convolution" version="opset1">
			<data strides="1, 1" dilations="1, 1" pads_begin="1, 1" pads_end="1, 1" auto_pad="explicit" />
			<input>
				<port id="0" precision="FP32">
					<dim>-1</dim>
					<dim>320</dim>
					<dim>-1</dim>
					<dim>-1</dim>
				</port>
				<port id="1" precision="FP32">
					<dim>320</dim>
					<dim>320</dim>
					<dim>3</dim>
					<dim>3</dim>
				</port>
			</input>
			<output>
				<port id="2" precision="FP32">
					<dim>-1</dim>
					<dim>320</dim>
					<dim>-1</dim>
					<dim>-1</dim>
				</port>
			</output>
		</layer>
		<layer id="27" name="__module.down_blocks.0.resnets.0.conv1/aten::_convolution/Reshape" type="Const" version="opset1">
			<data element_type="f32" shape="1, 320, 1, 1" offset="938880" size="1280" />
			<output>
				<port id="0" precision="FP32">
					<dim>1</dim>
					<dim>320</dim>
					<dim>1</dim>
					<dim>1</dim>
				</port>
			</output>
		</layer>
		<layer id="28" name="__module.down_blocks.0.resnets.0.conv1/aten::_convolution/Add" type="Add" version="opset1">
			<data auto_broadcast="numpy" />
			<input>
				<port id="0" precision="FP32">
					<dim>-1</dim>
					<dim>320</dim>
					<dim>-1</dim>
					<dim>-1</dim>
				</port>
				<port id="1" precision="FP32">
					<dim>1</dim>
					<dim>320</dim>
					<dim>1</dim>
					<dim>1</dim>
				</port>
			</input>
			<output>
				<port id="2" precision="FP32" names="192,hidden_states.1">
					<dim>-1</dim>
					<dim>320</dim>
					<dim>-1</dim>
					<dim>-1</dim>
				</port>
			</output>
		</layer>
		<layer id="29" name="ShapeOf_80761" type="ShapeOf" version="opset3">
			<data output_type="i64" />
			<input>
				<port id="0" precision="FP32">
					<dim>-1</dim>
					<dim>4</dim>
					<dim>-1</dim>
					<dim>-1</dim>
				</port>
			</input>
			<output>
				<port id="1" precision="I64">
					<dim>4</dim>
				</port>
			</output>
		</layer>
		<layer id="30" name="Constant_80762" type="Const" version="opset1">
			<data element_type="i64" shape="1" offset="940160" size="8" />
			<output>
				<port id="0" precision="I64">
					<dim>1</dim>
				</port>
			</output>
		</layer>
		<layer id="31" name="Constant_80763" type="Const" version="opset1">
			<data element_type="i64" shape="" offset="940160" size="8" />
			<output>
				<port id="0" precision="I64" />
			</output>
		</layer>
		<layer id="32" name="Gather_80764" type="Gather" version="opset8">
			<data batch_dims="0" />
			<input>
				<port id="0" precision="I64">
					<dim>4</dim>
				</port>
				<port id="1" precision="I64">
					<dim>1</dim>
				</port>
				<port id="2" precision="I64" />
			</input>
			<output>
				<port id="3" precision="I64" names="1121,1124,1161,1205,1321,1324,1361,1405,1654,1657,1694,1738,2125,2128,2165,2209,221,224,2336,2339,2376,2420,2547,2550,2587,261,2631,28,2801,2804,2841,2885,30,3012,3015,305,3052,3096,3223,3226,3263,3307,3475,3478,3515,3559,3686,3689,3726,3770,3897,3900,3937,3981,421,424,461,505,671,674,711,755,871,874,911,955">
					<dim>1</dim>
				</port>
			</output>
		</layer>
		<layer id="33" name="aten::expand/Broadcast" type="Broadcast" version="opset3">
			<data mode="bidirectional" />
			<input>
				<port id="0" precision="I64">
					<dim>-1</dim>
				</port>
				<port id="1" precision="I64">
					<dim>1</dim>
				</port>
			</input>
			<output>
				<port id="2" precision="I64" names="108,33,timesteps">
					<dim>-1</dim>
				</port>
			</output>
		</layer>
		<layer id="34" name="94" type="Const" version="opset1">
			<data element_type="i64" shape="" offset="940168" size="8" />
			<output>
				<port id="0" precision="I64" names="94" />
			</output>
		</layer>
		<layer id="35" name="__module.time_proj/aten::unsqueeze/Unsqueeze" type="Unsqueeze" version="opset1">
			<input>
				<port id="0" precision="I64">
					<dim>-1</dim>
				</port>
				<port id="1" precision="I64" />
			</input>
			<output>
				<port id="2" precision="I64" names="109">
					<dim>-1</dim>
					<dim>1</dim>
				</port>
			</output>
		</layer>
		<layer id="36" name="__module.time_proj/aten::to/Convert" type="Convert" version="opset1">
			<data destination_type="f32" />
			<input>
				<port id="0" precision="I64">
					<dim>-1</dim>
					<dim>1</dim>
				</port>
			</input>
			<output>
				<port id="1" precision="FP32" names="110">
					<dim>-1</dim>
					<dim>1</dim>
				</port>
			</output>
		</layer>
		<layer id="37" name="__module.time_proj/aten::slice/Slice_1" type="Const" version="opset1">
			<data element_type="f32" shape="1, 160" offset="940176" size="640" />
			<output>
				<port id="0" precision="FP32" names="112">
					<dim>1</dim>
					<dim>160</dim>
				</port>
			</output>
		</layer>
		<layer id="38" name="__module.time_proj/aten::mul/Multiply_1" type="Multiply" version="opset1">
			<data auto_broadcast="numpy" />
			<input>
				<port id="0" precision="FP32">
					<dim>-1</dim>
					<dim>1</dim>
				</port>
				<port id="1" precision="FP32">
					<dim>1</dim>
					<dim>160</dim>
				</port>
			</input>
			<output>
				<port id="2" precision="FP32" names="113,114,emb.3,emb.5">
					<dim>-1</dim>
					<dim>160</dim>
				</port>
			</output>
		</layer>
		<layer id="39" name="__module.time_proj/aten::sin/Sin" type="Sin" version="opset1">
			<input>
				<port id="0" precision="FP32">
					<dim>-1</dim>
					<dim>160</dim>
				</port>
			</input>
			<output>
				<port id="1" precision="FP32" names="115">
					<dim>-1</dim>
					<dim>160</dim>
				</port>
			</output>
		</layer>
		<layer id="40" name="__module.time_proj/aten::cos/Cos" type="Cos" version="opset1">
			<input>
				<port id="0" precision="FP32">
					<dim>-1</dim>
					<dim>160</dim>
				</port>
			</input>
			<output>
				<port id="1" precision="FP32" names="116">
					<dim>-1</dim>
					<dim>160</dim>
				</port>
			</output>
		</layer>
		<layer id="41" name="__module.time_proj/aten::cat/Concat" type="Concat" version="opset1">
			<data axis="-1" />
			<input>
				<port id="0" precision="FP32">
					<dim>-1</dim>
					<dim>160</dim>
				</port>
				<port id="1" precision="FP32">
					<dim>-1</dim>
					<dim>160</dim>
				</port>
			</input>
			<output>
				<port id="2" precision="FP32" names="118,119,121,emb">
					<dim>-1</dim>
					<dim>320</dim>
				</port>
			</output>
		</layer>
		<layer id="42" name="Constant_17570" type="Const" version="opset1">
			<data element_type="i64" shape="1" offset="940816" size="8" />
			<output>
				<port id="0" precision="I64">
					<dim>1</dim>
				</port>
			</output>
		</layer>
		<layer id="43" name="Constant_17572" type="Const" version="opset1">
			<data element_type="i64" shape="1" offset="940824" size="8" />
			<output>
				<port id="0" precision="I64">
					<dim>1</dim>
				</port>
			</output>
		</layer>
		<layer id="44" name="Constant_17574" type="Const" version="opset1">
			<data element_type="i64" shape="1" offset="940168" size="8" />
			<output>
				<port id="0" precision="I64">
					<dim>1</dim>
				</port>
			</output>
		</layer>
		<layer id="45" name="Constant_17568" type="Const" version="opset1">
			<data element_type="i64" shape="1" offset="940168" size="8" />
			<output>
				<port id="0" precision="I64">
					<dim>1</dim>
				</port>
			</output>
		</layer>
		<layer id="46" name="__module.time_proj/aten::slice/Slice_3" type="Slice" version="opset8">
			<input>
				<port id="0" precision="FP32">
					<dim>-1</dim>
					<dim>320</dim>
				</port>
				<port id="1" precision="I64">
					<dim>1</dim>
				</port>
				<port id="2" precision="I64">
					<dim>1</dim>
				</port>
				<port id="3" precision="I64">
					<dim>1</dim>
				</port>
				<port id="4" precision="I64">
					<dim>1</dim>
				</port>
			</input>
			<output>
				<port id="5" precision="FP32" names="120">
					<dim>-1</dim>
					<dim>160</dim>
				</port>
			</output>
		</layer>
		<layer id="47" name="Constant_17590" type="Const" version="opset1">
			<data element_type="i64" shape="1" offset="940160" size="8" />
			<output>
				<port id="0" precision="I64">
					<dim>1</dim>
				</port>
			</output>
		</layer>
		<layer id="48" name="Constant_17592" type="Const" version="opset1">
			<data element_type="i64" shape="1" offset="940816" size="8" />
			<output>
				<port id="0" precision="I64">
					<dim>1</dim>
				</port>
			</output>
		</layer>
		<layer id="49" name="Constant_17594" type="Const" version="opset1">
			<data element_type="i64" shape="1" offset="940168" size="8" />
			<output>
				<port id="0" precision="I64">
					<dim>1</dim>
				</port>
			</output>
		</layer>
		<layer id="50" name="Constant_17588" type="Const" version="opset1">
			<data element_type="i64" shape="1" offset="940168" size="8" />
			<output>
				<port id="0" precision="I64">
					<dim>1</dim>
				</port>
			</output>
		</layer>
		<layer id="51" name="__module.time_proj/aten::slice/Slice_5" type="Slice" version="opset8">
			<input>
				<port id="0" precision="FP32">
					<dim>-1</dim>
					<dim>320</dim>
				</port>
				<port id="1" precision="I64">
					<dim>1</dim>
				</port>
				<port id="2" precision="I64">
					<dim>1</dim>
				</port>
				<port id="3" precision="I64">
					<dim>1</dim>
				</port>
				<port id="4" precision="I64">
					<dim>1</dim>
				</port>
			</input>
			<output>
				<port id="5" precision="FP32" names="122">
					<dim>-1</dim>
					<dim>160</dim>
				</port>
			</output>
		</layer>
		<layer id="52" name="__module.time_proj/aten::cat/Concat_1" type="Concat" version="opset1">
			<data axis="-1" />
			<input>
				<port id="0" precision="FP32">
					<dim>-1</dim>
					<dim>160</dim>
				</port>
				<port id="1" precision="FP32">
					<dim>-1</dim>
					<dim>160</dim>
				</port>
			</input>
			<output>
				<port id="2" precision="FP32" names="124,39,input.1,t_emb">
					<dim>-1</dim>
					<dim>320</dim>
				</port>
			</output>
		</layer>
		<layer id="53" name="self.time_embedding.linear_1.weight" type="Const" version="opset1">
			<data element_type="u8" shape="1280, 320" offset="940832" size="409600" />
			<output>
				<port id="0" precision="U8">
					<dim>1280</dim>
					<dim>320</dim>
				</port>
			</output>
		</layer>
		<layer id="54" name="Convert_1186524" type="Convert" version="opset1">
			<data destination_type="f16" />
			<input>
				<port id="0" precision="U8">
					<dim>1280</dim>
					<dim>320</dim>
				</port>
			</input>
			<output>
				<port id="1" precision="FP16">
					<dim>1280</dim>
					<dim>320</dim>
				</port>
			</output>
		</layer>
		<layer id="55" name="self.time_embedding.linear_1.weight/zero_point" type="Const" version="opset1">
			<data element_type="u8" shape="1280, 1" offset="1350432" size="1280" />
			<output>
				<port id="0" precision="U8">
					<dim>1280</dim>
					<dim>1</dim>
				</port>
			</output>
		</layer>
		<layer id="56" name="Convert_1186527" type="Convert" version="opset1">
			<data destination_type="f16" />
			<input>
				<port id="0" precision="U8">
					<dim>1280</dim>
					<dim>1</dim>
				</port>
			</input>
			<output>
				<port id="1" precision="FP16">
					<dim>1280</dim>
					<dim>1</dim>
				</port>
			</output>
		</layer>
		<layer id="57" name="self.time_embedding.linear_1.weight/zero_point/subtract" type="Subtract" version="opset1">
			<data auto_broadcast="numpy" />
			<input>
				<port id="0" precision="FP16">
					<dim>1280</dim>
					<dim>320</dim>
				</port>
				<port id="1" precision="FP16">
					<dim>1280</dim>
					<dim>1</dim>
				</port>
			</input>
			<output>
				<port id="2" precision="FP16">
					<dim>1280</dim>
					<dim>320</dim>
				</port>
			</output>
		</layer>
		<layer id="58" name="self.time_embedding.linear_1.weight/scale" type="Const" version="opset1">
			<data element_type="f16" shape="1280, 1" offset="1351712" size="2560" />
			<output>
				<port id="0" precision="FP16">
					<dim>1280</dim>
					<dim>1</dim>
				</port>
			</output>
		</layer>
		<layer id="59" name="self.time_embedding.linear_1.weight/fq_weights_1" type="Multiply" version="opset1">
			<data auto_broadcast="numpy" />
			<input>
				<port id="0" precision="FP16">
					<dim>1280</dim>
					<dim>320</dim>
				</port>
				<port id="1" precision="FP16">
					<dim>1280</dim>
					<dim>1</dim>
				</port>
			</input>
			<output>
				<port id="2" precision="FP16">
					<dim>1280</dim>
					<dim>320</dim>
				</port>
			</output>
		</layer>
		<layer id="60" name="self.time_embedding.linear_1.weight/fq_weights_1/convert" type="Convert" version="opset1">
			<data destination_type="f32" />
			<input>
				<port id="0" precision="FP16">
					<dim>1280</dim>
					<dim>320</dim>
				</port>
			</input>
			<output>
				<port id="1" precision="FP32">
					<dim>1280</dim>
					<dim>320</dim>
				</port>
			</output>
		</layer>
		<layer id="61" name="__module.time_embedding.linear_1/aten::linear/MatMul" type="MatMul" version="opset1">
			<data transpose_a="false" transpose_b="true" />
			<input>
				<port id="0" precision="FP32">
					<dim>-1</dim>
					<dim>320</dim>
				</port>
				<port id="1" precision="FP32">
					<dim>1280</dim>
					<dim>320</dim>
				</port>
			</input>
			<output>
				<port id="2" precision="FP32">
					<dim>-1</dim>
					<dim>1280</dim>
				</port>
			</output>
		</layer>
		<layer id="62" name="Constant_78238" type="Const" version="opset1">
			<data element_type="f32" shape="1, 1280" offset="1354272" size="5120" />
			<output>
				<port id="0" precision="FP32">
					<dim>1</dim>
					<dim>1280</dim>
				</port>
			</output>
		</layer>
		<layer id="63" name="__module.time_embedding.linear_1/aten::linear/Add" type="Add" version="opset1">
			<data auto_broadcast="numpy" />
			<input>
				<port id="0" precision="FP32">
					<dim>-1</dim>
					<dim>1280</dim>
				</port>
				<port id="1" precision="FP32">
					<dim>1</dim>
					<dim>1280</dim>
				</port>
			</input>
			<output>
				<port id="2" precision="FP32" names="130,input.3">
					<dim>-1</dim>
					<dim>1280</dim>
				</port>
			</output>
		</layer>
		<layer id="64" name="__module.time_embedding.act/aten::silu/Swish" type="Swish" version="opset4">
			<input>
				<port id="0" precision="FP32">
					<dim>-1</dim>
					<dim>1280</dim>
				</port>
			</input>
			<output>
				<port id="1" precision="FP32" names="131,input.5">
					<dim>-1</dim>
					<dim>1280</dim>
				</port>
			</output>
		</layer>
		<layer id="65" name="self.time_embedding.linear_2.weight" type="Const" version="opset1">
			<data element_type="u8" shape="1280, 1280" offset="1359392" size="1638400" />
			<output>
				<port id="0" precision="U8">
					<dim>1280</dim>
					<dim>1280</dim>
				</port>
			</output>
		</layer>
		<layer id="66" name="Convert_714074" type="Convert" version="opset1">
			<data destination_type="f16" />
			<input>
				<port id="0" precision="U8">
					<dim>1280</dim>
					<dim>1280</dim>
				</port>
			</input>
			<output>
				<port id="1" precision="FP16">
					<dim>1280</dim>
					<dim>1280</dim>
				</port>
			</output>
		</layer>
		<layer id="67" name="self.time_embedding.linear_2.weight/zero_point" type="Const" version="opset1">
			<data element_type="u8" shape="1280, 1" offset="2997792" size="1280" />
			<output>
				<port id="0" precision="U8">
					<dim>1280</dim>
					<dim>1</dim>
				</port>
			</output>
		</layer>
		<layer id="68" name="Convert_714077" type="Convert" version="opset1">
			<data destination_type="f16" />
			<input>
				<port id="0" precision="U8">
					<dim>1280</dim>
					<dim>1</dim>
				</port>
			</input>
			<output>
				<port id="1" precision="FP16">
					<dim>1280</dim>
					<dim>1</dim>
				</port>
			</output>
		</layer>
		<layer id="69" name="self.time_embedding.linear_2.weight/zero_point/subtract" type="Subtract" version="opset1">
			<data auto_broadcast="numpy" />
			<input>
				<port id="0" precision="FP16">
					<dim>1280</dim>
					<dim>1280</dim>
				</port>
				<port id="1" precision="FP16">
					<dim>1280</dim>
					<dim>1</dim>
				</port>
			</input>
			<output>
				<port id="2" precision="FP16">
					<dim>1280</dim>
					<dim>1280</dim>
				</port>
			</output>
		</layer>
		<layer id="70" name="self.time_embedding.linear_2.weight/scale" type="Const" version="opset1">
			<data element_type="f16" shape="1280, 1" offset="2999072" size="2560" />
			<output>
				<port id="0" precision="FP16">
					<dim>1280</dim>
					<dim>1</dim>
				</port>
			</output>
		</layer>
		<layer id="71" name="self.time_embedding.linear_2.weight/fq_weights_1" type="Multiply" version="opset1">
			<data auto_broadcast="numpy" />
			<input>
				<port id="0" precision="FP16">
					<dim>1280</dim>
					<dim>1280</dim>
				</port>
				<port id="1" precision="FP16">
					<dim>1280</dim>
					<dim>1</dim>
				</port>
			</input>
			<output>
				<port id="2" precision="FP16">
					<dim>1280</dim>
					<dim>1280</dim>
				</port>
			</output>
		</layer>
		<layer id="72" name="self.time_embedding.linear_2.weight/fq_weights_1/convert" type="Convert" version="opset1">
			<data destination_type="f32" />
			<input>
				<port id="0" precision="FP16">
					<dim>1280</dim>
					<dim>1280</dim>
				</port>
			</input>
			<output>
				<port id="1" precision="FP32">
					<dim>1280</dim>
					<dim>1280</dim>
				</port>
			</output>
		</layer>
		<layer id="73" name="__module.time_embedding.linear_2/aten::linear/MatMul" type="MatMul" version="opset1">
			<data transpose_a="false" transpose_b="true" />
			<input>
				<port id="0" precision="FP32">
					<dim>-1</dim>
					<dim>1280</dim>
				</port>
				<port id="1" precision="FP32">
					<dim>1280</dim>
					<dim>1280</dim>
				</port>
			</input>
			<output>
				<port id="2" precision="FP32">
					<dim>-1</dim>
					<dim>1280</dim>
				</port>
			</output>
		</layer>
		<layer id="74" name="Constant_78239" type="Const" version="opset1">
			<data element_type="f32" shape="1, 1280" offset="3001632" size="5120" />
			<output>
				<port id="0" precision="FP32">
					<dim>1</dim>
					<dim>1280</dim>
				</port>
			</output>
		</layer>
		<layer id="75" name="__module.time_embedding.linear_2/aten::linear/Add" type="Add" version="opset1">
			<data auto_broadcast="numpy" />
			<input>
				<port id="0" precision="FP32">
					<dim>-1</dim>
					<dim>1280</dim>
				</port>
				<port id="1" precision="FP32">
					<dim>1</dim>
					<dim>1280</dim>
				</port>
			</input>
			<output>
				<port id="2" precision="FP32" names="134,input.13">
					<dim>-1</dim>
					<dim>1280</dim>
				</port>
			</output>
		</layer>
		<layer id="76" name="__module.down_blocks.0.resnets.0.nonlinearity/aten::silu/Swish_1" type="Swish" version="opset4">
			<input>
				<port id="0" precision="FP32">
					<dim>-1</dim>
					<dim>1280</dim>
				</port>
			</input>
			<output>
				<port id="1" precision="FP32" names="1082,1293,1517,1558,1626,1826,1890,193,1942,1994,2089,2300,2511,2765,2976,3187,3439,3650,3861,393,632,843,input.137,input.15,input.177,input.219,input.259,input.275,input.291,input.331,input.347,input.365,input.383,input.403,input.445,input.487,input.531,input.55,input.573,input.615,input.659,input.701,input.743,input.95">
					<dim>-1</dim>
					<dim>1280</dim>
				</port>
			</output>
		</layer>
		<layer id="77" name="self.down_blocks.0.resnets.0.time_emb_proj.weight" type="Const" version="opset1">
			<data element_type="u8" shape="320, 1280" offset="3006752" size="409600" />
			<output>
				<port id="0" precision="U8">
					<dim>320</dim>
					<dim>1280</dim>
				</port>
			</output>
		</layer>
		<layer id="78" name="Convert_1199409" type="Convert" version="opset1">
			<data destination_type="f16" />
			<input>
				<port id="0" precision="U8">
					<dim>320</dim>
					<dim>1280</dim>
				</port>
			</input>
			<output>
				<port id="1" precision="FP16">
					<dim>320</dim>
					<dim>1280</dim>
				</port>
			</output>
		</layer>
		<layer id="79" name="self.down_blocks.0.resnets.0.time_emb_proj.weight/zero_point" type="Const" version="opset1">
			<data element_type="u8" shape="320, 1" offset="3416352" size="320" />
			<output>
				<port id="0" precision="U8">
					<dim>320</dim>
					<dim>1</dim>
				</port>
			</output>
		</layer>
		<layer id="80" name="Convert_1199412" type="Convert" version="opset1">
			<data destination_type="f16" />
			<input>
				<port id="0" precision="U8">
					<dim>320</dim>
					<dim>1</dim>
				</port>
			</input>
			<output>
				<port id="1" precision="FP16">
					<dim>320</dim>
					<dim>1</dim>
				</port>
			</output>
		</layer>
		<layer id="81" name="self.down_blocks.0.resnets.0.time_emb_proj.weight/zero_point/subtract" type="Subtract" version="opset1">
			<data auto_broadcast="numpy" />
			<input>
				<port id="0" precision="FP16">
					<dim>320</dim>
					<dim>1280</dim>
				</port>
				<port id="1" precision="FP16">
					<dim>320</dim>
					<dim>1</dim>
				</port>
			</input>
			<output>
				<port id="2" precision="FP16">
					<dim>320</dim>
					<dim>1280</dim>
				</port>
			</output>
		</layer>
		<layer id="82" name="self.down_blocks.0.resnets.0.time_emb_proj.weight/scale" type="Const" version="opset1">
			<data element_type="f16" shape="320, 1" offset="3416672" size="640" />
			<output>
				<port id="0" precision="FP16">
					<dim>320</dim>
					<dim>1</dim>
				</port>
			</output>
		</layer>
		<layer id="83" name="self.down_blocks.0.resnets.0.time_emb_proj.weight/fq_weights_1" type="Multiply" version="opset1">
			<data auto_broadcast="numpy" />
			<input>
				<port id="0" precision="FP16">
					<dim>320</dim>
					<dim>1280</dim>
				</port>
				<port id="1" precision="FP16">
					<dim>320</dim>
					<dim>1</dim>
				</port>
			</input>
			<output>
				<port id="2" precision="FP16">
					<dim>320</dim>
					<dim>1280</dim>
				</port>
			</output>
		</layer>
		<layer id="84" name="self.down_blocks.0.resnets.0.time_emb_proj.weight/fq_weights_1/convert" type="Convert" version="opset1">
			<data destination_type="f32" />
			<input>
				<port id="0" precision="FP16">
					<dim>320</dim>
					<dim>1280</dim>
				</port>
			</input>
			<output>
				<port id="1" precision="FP32">
					<dim>320</dim>
					<dim>1280</dim>
				</port>
			</output>
		</layer>
		<layer id="85" name="__module.down_blocks.0.resnets.0.time_emb_proj/aten::linear/MatMul" type="MatMul" version="opset1">
			<data transpose_a="false" transpose_b="true" />
			<input>
				<port id="0" precision="FP32">
					<dim>-1</dim>
					<dim>1280</dim>
				</port>
				<port id="1" precision="FP32">
					<dim>320</dim>
					<dim>1280</dim>
				</port>
			</input>
			<output>
				<port id="2" precision="FP32">
					<dim>-1</dim>
					<dim>320</dim>
				</port>
			</output>
		</layer>
		<layer id="86" name="Constant_78240" type="Const" version="opset1">
			<data element_type="f32" shape="1, 320" offset="3417312" size="1280" />
			<output>
				<port id="0" precision="FP32">
					<dim>1</dim>
					<dim>320</dim>
				</port>
			</output>
		</layer>
		<layer id="87" name="__module.down_blocks.0.resnets.0.time_emb_proj/aten::linear/Add" type="Add" version="opset1">
			<data auto_broadcast="numpy" />
			<input>
				<port id="0" precision="FP32">
					<dim>-1</dim>
					<dim>320</dim>
				</port>
				<port id="1" precision="FP32">
					<dim>1</dim>
					<dim>320</dim>
				</port>
			</input>
			<output>
				<port id="2" precision="FP32" names="196,197,198">
					<dim>-1</dim>
					<dim>320</dim>
				</port>
			</output>
		</layer>
		<layer id="88" name="161" type="Const" version="opset1">
			<data element_type="i64" shape="" offset="3418592" size="8" />
			<output>
				<port id="0" precision="I64" names="161" />
			</output>
		</layer>
		<layer id="89" name="__module.down_blocks.0.resnets.0/aten::unsqueeze/Unsqueeze" type="Unsqueeze" version="opset1">
			<input>
				<port id="0" precision="FP32">
					<dim>-1</dim>
					<dim>320</dim>
				</port>
				<port id="1" precision="I64" />
			</input>
			<output>
				<port id="2" precision="FP32" names="199">
					<dim>-1</dim>
					<dim>320</dim>
					<dim>1</dim>
				</port>
			</output>
		</layer>
		<layer id="90" name="162" type="Const" version="opset1">
			<data element_type="i64" shape="" offset="3418600" size="8" />
			<output>
				<port id="0" precision="I64" names="162" />
			</output>
		</layer>
		<layer id="91" name="__module.down_blocks.0.resnets.0/aten::unsqueeze/Unsqueeze_1" type="Unsqueeze" version="opset1">
			<input>
				<port id="0" precision="FP32">
					<dim>-1</dim>
					<dim>320</dim>
					<dim>1</dim>
				</port>
				<port id="1" precision="I64" />
			</input>
			<output>
				<port id="2" precision="FP32" names="200,temb.1">
					<dim>-1</dim>
					<dim>320</dim>
					<dim>1</dim>
					<dim>1</dim>
				</port>
			</output>
		</layer>
		<layer id="92" name="__module.down_blocks.0.resnets.0/aten::add/Add" type="Add" version="opset1">
			<data auto_broadcast="numpy" />
			<input>
				<port id="0" precision="FP32">
					<dim>-1</dim>
					<dim>320</dim>
					<dim>-1</dim>
					<dim>-1</dim>
				</port>
				<port id="1" precision="FP32">
					<dim>-1</dim>
					<dim>320</dim>
					<dim>1</dim>
					<dim>1</dim>
				</port>
			</input>
			<output>
				<port id="2" precision="FP32" names="201,input.17">
					<dim>-1</dim>
					<dim>320</dim>
					<dim>-1</dim>
					<dim>-1</dim>
				</port>
			</output>
		</layer>
		<layer id="93" name="self.down_blocks.0.resnets.0.norm2.weight" type="Const" version="opset1">
			<data element_type="f32" shape="320" offset="3418608" size="1280" />
			<output>
				<port id="0" precision="FP32" names="self.down_blocks.0.resnets.0.norm2.weight">
					<dim>320</dim>
				</port>
			</output>
		</layer>
		<layer id="94" name="self.down_blocks.0.resnets.0.norm2.bias" type="Const" version="opset1">
			<data element_type="f32" shape="320" offset="3419888" size="1280" />
			<output>
				<port id="0" precision="FP32" names="self.down_blocks.0.resnets.0.norm2.bias">
					<dim>320</dim>
				</port>
			</output>
		</layer>
		<layer id="95" name="__module.down_blocks.0.resnets.0.norm2/aten::group_norm/GroupNormalization" type="GroupNormalization" version="opset12">
			<data num_groups="32" epsilon="9.9999997473787516e-06" />
			<input>
				<port id="0" precision="FP32">
					<dim>-1</dim>
					<dim>320</dim>
					<dim>-1</dim>
					<dim>-1</dim>
				</port>
				<port id="1" precision="FP32">
					<dim>320</dim>
				</port>
				<port id="2" precision="FP32">
					<dim>320</dim>
				</port>
			</input>
			<output>
				<port id="3" precision="FP32" names="204,input.19">
					<dim>-1</dim>
					<dim>320</dim>
					<dim>-1</dim>
					<dim>-1</dim>
				</port>
			</output>
		</layer>
		<layer id="96" name="__module.down_blocks.0.resnets.0.nonlinearity/aten::silu/Swish_2" type="Swish" version="opset4">
			<input>
				<port id="0" precision="FP32">
					<dim>-1</dim>
					<dim>320</dim>
					<dim>-1</dim>
					<dim>-1</dim>
				</port>
			</input>
			<output>
				<port id="1" precision="FP32" names="205,input.21">
					<dim>-1</dim>
					<dim>320</dim>
					<dim>-1</dim>
					<dim>-1</dim>
				</port>
			</output>
		</layer>
		<layer id="97" name="self.down_blocks.0.resnets.0.conv2.weight" type="Const" version="opset1">
			<data element_type="u8" shape="320, 320, 3, 3" offset="3421168" size="921600" />
			<output>
				<port id="0" precision="U8">
					<dim>320</dim>
					<dim>320</dim>
					<dim>3</dim>
					<dim>3</dim>
				</port>
			</output>
		</layer>
		<layer id="98" name="Convert_1057674" type="Convert" version="opset1">
			<data destination_type="f16" />
			<input>
				<port id="0" precision="U8">
					<dim>320</dim>
					<dim>320</dim>
					<dim>3</dim>
					<dim>3</dim>
				</port>
			</input>
			<output>
				<port id="1" precision="FP16">
					<dim>320</dim>
					<dim>320</dim>
					<dim>3</dim>
					<dim>3</dim>
				</port>
			</output>
		</layer>
		<layer id="99" name="self.down_blocks.0.resnets.0.conv2.weight/zero_point" type="Const" version="opset1">
			<data element_type="u8" shape="320, 1, 1, 1" offset="4342768" size="320" />
			<output>
				<port id="0" precision="U8">
					<dim>320</dim>
					<dim>1</dim>
					<dim>1</dim>
					<dim>1</dim>
				</port>
			</output>
		</layer>
		<layer id="100" name="Convert_1057677" type="Convert" version="opset1">
			<data destination_type="f16" />
			<input>
				<port id="0" precision="U8">
					<dim>320</dim>
					<dim>1</dim>
					<dim>1</dim>
					<dim>1</dim>
				</port>
			</input>
			<output>
				<port id="1" precision="FP16">
					<dim>320</dim>
					<dim>1</dim>
					<dim>1</dim>
					<dim>1</dim>
				</port>
			</output>
		</layer>
		<layer id="101" name="self.down_blocks.0.resnets.0.conv2.weight/zero_point/subtract" type="Subtract" version="opset1">
			<data auto_broadcast="numpy" />
			<input>
				<port id="0" precision="FP16">
					<dim>320</dim>
					<dim>320</dim>
					<dim>3</dim>
					<dim>3</dim>
				</port>
				<port id="1" precision="FP16">
					<dim>320</dim>
					<dim>1</dim>
					<dim>1</dim>
					<dim>1</dim>
				</port>
			</input>
			<output>
				<port id="2" precision="FP16">
					<dim>320</dim>
					<dim>320</dim>
					<dim>3</dim>
					<dim>3</dim>
				</port>
			</output>
		</layer>
		<layer id="102" name="self.down_blocks.0.resnets.0.conv2.weight/scale" type="Const" version="opset1">
			<data element_type="f16" shape="320, 1, 1, 1" offset="4343088" size="640" />
			<output>
				<port id="0" precision="FP16">
					<dim>320</dim>
					<dim>1</dim>
					<dim>1</dim>
					<dim>1</dim>
				</port>
			</output>
		</layer>
		<layer id="103" name="self.down_blocks.0.resnets.0.conv2.weight/fq_weights_1" type="Multiply" version="opset1">
			<data auto_broadcast="numpy" />
			<input>
				<port id="0" precision="FP16">
					<dim>320</dim>
					<dim>320</dim>
					<dim>3</dim>
					<dim>3</dim>
				</port>
				<port id="1" precision="FP16">
					<dim>320</dim>
					<dim>1</dim>
					<dim>1</dim>
					<dim>1</dim>
				</port>
			</input>
			<output>
				<port id="2" precision="FP16">
					<dim>320</dim>
					<dim>320</dim>
					<dim>3</dim>
					<dim>3</dim>
				</port>
			</output>
		</layer>
		<layer id="104" name="self.down_blocks.0.resnets.0.conv2.weight/fq_weights_1/convert" type="Convert" version="opset1">
			<data destination_type="f32" />
			<input>
				<port id="0" precision="FP16">
					<dim>320</dim>
					<dim>320</dim>
					<dim>3</dim>
					<dim>3</dim>
				</port>
			</input>
			<output>
				<port id="1" precision="FP32">
					<dim>320</dim>
					<dim>320</dim>
					<dim>3</dim>
					<dim>3</dim>
				</port>
			</output>
		</layer>
		<layer id="105" name="__module.down_blocks.0.resnets.0.conv2/aten::_convolution/Convolution" type="Convolution" version="opset1">
			<data strides="1, 1" dilations="1, 1" pads_begin="1, 1" pads_end="1, 1" auto_pad="explicit" />
			<input>
				<port id="0" precision="FP32">
					<dim>-1</dim>
					<dim>320</dim>
					<dim>-1</dim>
					<dim>-1</dim>
				</port>
				<port id="1" precision="FP32">
					<dim>320</dim>
					<dim>320</dim>
					<dim>3</dim>
					<dim>3</dim>
				</port>
			</input>
			<output>
				<port id="2" precision="FP32">
					<dim>-1</dim>
					<dim>320</dim>
					<dim>-1</dim>
					<dim>-1</dim>
				</port>
			</output>
		</layer>
		<layer id="106" name="__module.down_blocks.0.resnets.0.conv2/aten::_convolution/Reshape" type="Const" version="opset1">
			<data element_type="f32" shape="1, 320, 1, 1" offset="4343728" size="1280" />
			<output>
				<port id="0" precision="FP32">
					<dim>1</dim>
					<dim>320</dim>
					<dim>1</dim>
					<dim>1</dim>
				</port>
			</output>
		</layer>
		<layer id="107" name="__module.down_blocks.0.resnets.0.conv2/aten::_convolution/Add" type="Add" version="opset1">
			<data auto_broadcast="numpy" />
			<input>
				<port id="0" precision="FP32">
					<dim>-1</dim>
					<dim>320</dim>
					<dim>-1</dim>
					<dim>-1</dim>
				</port>
				<port id="1" precision="FP32">
					<dim>1</dim>
					<dim>320</dim>
					<dim>1</dim>
					<dim>1</dim>
				</port>
			</input>
			<output>
				<port id="2" precision="FP32" names="213,hidden_states.3">
					<dim>-1</dim>
					<dim>320</dim>
					<dim>-1</dim>
					<dim>-1</dim>
				</port>
			</output>
		</layer>
		<layer id="108" name="__module.down_blocks.0.resnets.0/aten::add/Add_1" type="Add" version="opset1">
			<data auto_broadcast="numpy" />
			<input>
				<port id="0" precision="FP32">
					<dim>-1</dim>
					<dim>320</dim>
					<dim>-1</dim>
					<dim>-1</dim>
				</port>
				<port id="1" precision="FP32">
					<dim>-1</dim>
					<dim>320</dim>
					<dim>-1</dim>
					<dim>-1</dim>
				</port>
			</input>
			<output>
				<port id="2" precision="FP32" names="214,215,hidden_states.5">
					<dim>-1</dim>
					<dim>320</dim>
					<dim>-1</dim>
					<dim>-1</dim>
				</port>
			</output>
		</layer>
		<layer id="109" name="self.down_blocks.0.attentions.0.norm.weight" type="Const" version="opset1">
			<data element_type="f32" shape="320" offset="4345008" size="1280" />
			<output>
				<port id="0" precision="FP32" names="self.down_blocks.0.attentions.0.norm.weight">
					<dim>320</dim>
				</port>
			</output>
		</layer>
		<layer id="110" name="self.down_blocks.0.attentions.0.norm.bias" type="Const" version="opset1">
			<data element_type="f32" shape="320" offset="4346288" size="1280" />
			<output>
				<port id="0" precision="FP32" names="self.down_blocks.0.attentions.0.norm.bias">
					<dim>320</dim>
				</port>
			</output>
		</layer>
		<layer id="111" name="__module.down_blocks.0.attentions.0.norm/aten::group_norm/GroupNormalization" type="GroupNormalization" version="opset12">
			<data num_groups="32" epsilon="9.9999999747524271e-07" />
			<input>
				<port id="0" precision="FP32">
					<dim>-1</dim>
					<dim>320</dim>
					<dim>-1</dim>
					<dim>-1</dim>
				</port>
				<port id="1" precision="FP32">
					<dim>320</dim>
				</port>
				<port id="2" precision="FP32">
					<dim>320</dim>
				</port>
			</input>
			<output>
				<port id="3" precision="FP32" names="231,input.25">
					<dim>-1</dim>
					<dim>320</dim>
					<dim>-1</dim>
					<dim>-1</dim>
				</port>
			</output>
		</layer>
		<layer id="112" name="self.down_blocks.0.attentions.0.proj_in.weight" type="Const" version="opset1">
			<data element_type="u8" shape="320, 320, 1, 1" offset="4347568" size="102400" />
			<output>
				<port id="0" precision="U8">
					<dim>320</dim>
					<dim>320</dim>
					<dim>1</dim>
					<dim>1</dim>
				</port>
			</output>
		</layer>
		<layer id="113" name="Convert_1465699" type="Convert" version="opset1">
			<data destination_type="f16" />
			<input>
				<port id="0" precision="U8">
					<dim>320</dim>
					<dim>320</dim>
					<dim>1</dim>
					<dim>1</dim>
				</port>
			</input>
			<output>
				<port id="1" precision="FP16">
					<dim>320</dim>
					<dim>320</dim>
					<dim>1</dim>
					<dim>1</dim>
				</port>
			</output>
		</layer>
		<layer id="114" name="self.down_blocks.0.attentions.0.proj_in.weight/zero_point" type="Const" version="opset1">
			<data element_type="u8" shape="320, 1, 1, 1" offset="4449968" size="320" />
			<output>
				<port id="0" precision="U8">
					<dim>320</dim>
					<dim>1</dim>
					<dim>1</dim>
					<dim>1</dim>
				</port>
			</output>
		</layer>
		<layer id="115" name="Convert_1465702" type="Convert" version="opset1">
			<data destination_type="f16" />
			<input>
				<port id="0" precision="U8">
					<dim>320</dim>
					<dim>1</dim>
					<dim>1</dim>
					<dim>1</dim>
				</port>
			</input>
			<output>
				<port id="1" precision="FP16">
					<dim>320</dim>
					<dim>1</dim>
					<dim>1</dim>
					<dim>1</dim>
				</port>
			</output>
		</layer>
		<layer id="116" name="self.down_blocks.0.attentions.0.proj_in.weight/zero_point/subtract" type="Subtract" version="opset1">
			<data auto_broadcast="numpy" />
			<input>
				<port id="0" precision="FP16">
					<dim>320</dim>
					<dim>320</dim>
					<dim>1</dim>
					<dim>1</dim>
				</port>
				<port id="1" precision="FP16">
					<dim>320</dim>
					<dim>1</dim>
					<dim>1</dim>
					<dim>1</dim>
				</port>
			</input>
			<output>
				<port id="2" precision="FP16">
					<dim>320</dim>
					<dim>320</dim>
					<dim>1</dim>
					<dim>1</dim>
				</port>
			</output>
		</layer>
		<layer id="117" name="self.down_blocks.0.attentions.0.proj_in.weight/scale" type="Const" version="opset1">
			<data element_type="f16" shape="320, 1, 1, 1" offset="4450288" size="640" />
			<output>
				<port id="0" precision="FP16">
					<dim>320</dim>
					<dim>1</dim>
					<dim>1</dim>
					<dim>1</dim>
				</port>
			</output>
		</layer>
		<layer id="118" name="self.down_blocks.0.attentions.0.proj_in.weight/fq_weights_1" type="Multiply" version="opset1">
			<data auto_broadcast="numpy" />
			<input>
				<port id="0" precision="FP16">
					<dim>320</dim>
					<dim>320</dim>
					<dim>1</dim>
					<dim>1</dim>
				</port>
				<port id="1" precision="FP16">
					<dim>320</dim>
					<dim>1</dim>
					<dim>1</dim>
					<dim>1</dim>
				</port>
			</input>
			<output>
				<port id="2" precision="FP16">
					<dim>320</dim>
					<dim>320</dim>
					<dim>1</dim>
					<dim>1</dim>
				</port>
			</output>
		</layer>
		<layer id="119" name="self.down_blocks.0.attentions.0.proj_in.weight/fq_weights_1/convert" type="Convert" version="opset1">
			<data destination_type="f32" />
			<input>
				<port id="0" precision="FP16">
					<dim>320</dim>
					<dim>320</dim>
					<dim>1</dim>
					<dim>1</dim>
				</port>
			</input>
			<output>
				<port id="1" precision="FP32">
					<dim>320</dim>
					<dim>320</dim>
					<dim>1</dim>
					<dim>1</dim>
				</port>
			</output>
		</layer>
		<layer id="120" name="__module.down_blocks.0.attentions.0.proj_in/aten::_convolution/Convolution" type="Convolution" version="opset1">
			<data strides="1, 1" dilations="1, 1" pads_begin="0, 0" pads_end="0, 0" auto_pad="explicit" />
			<input>
				<port id="0" precision="FP32">
					<dim>-1</dim>
					<dim>320</dim>
					<dim>-1</dim>
					<dim>-1</dim>
				</port>
				<port id="1" precision="FP32">
					<dim>320</dim>
					<dim>320</dim>
					<dim>1</dim>
					<dim>1</dim>
				</port>
			</input>
			<output>
				<port id="2" precision="FP32">
					<dim>-1</dim>
					<dim>320</dim>
					<dim>-1</dim>
					<dim>-1</dim>
				</port>
			</output>
		</layer>
		<layer id="121" name="__module.down_blocks.0.attentions.0.proj_in/aten::_convolution/Reshape" type="Const" version="opset1">
			<data element_type="f32" shape="1, 320, 1, 1" offset="4450928" size="1280" />
			<output>
				<port id="0" precision="FP32">
					<dim>1</dim>
					<dim>320</dim>
					<dim>1</dim>
					<dim>1</dim>
				</port>
			</output>
		</layer>
		<layer id="122" name="__module.down_blocks.0.attentions.0.proj_in/aten::_convolution/Add" type="Add" version="opset1">
			<data auto_broadcast="numpy" />
			<input>
				<port id="0" precision="FP32">
					<dim>-1</dim>
					<dim>320</dim>
					<dim>-1</dim>
					<dim>-1</dim>
				</port>
				<port id="1" precision="FP32">
					<dim>1</dim>
					<dim>320</dim>
					<dim>1</dim>
					<dim>1</dim>
				</port>
			</input>
			<output>
				<port id="2" precision="FP32" names="238,hidden_states.7">
					<dim>-1</dim>
					<dim>320</dim>
					<dim>-1</dim>
					<dim>-1</dim>
				</port>
			</output>
		</layer>
		<layer id="123" name="Constant_17942" type="Const" version="opset1">
			<data element_type="i64" shape="4" offset="4452208" size="32" />
			<output>
				<port id="0" precision="I64" names="240">
					<dim>4</dim>
				</port>
			</output>
		</layer>
		<layer id="124" name="__module.down_blocks.0.attentions.0/aten::permute/Transpose" type="Transpose" version="opset1">
			<input>
				<port id="0" precision="FP32">
					<dim>-1</dim>
					<dim>320</dim>
					<dim>-1</dim>
					<dim>-1</dim>
				</port>
				<port id="1" precision="I64">
					<dim>4</dim>
				</port>
			</input>
			<output>
				<port id="2" precision="FP32" names="241">
					<dim>-1</dim>
					<dim>-1</dim>
					<dim>-1</dim>
					<dim>320</dim>
				</port>
			</output>
		</layer>
		<layer id="125" name="Constant_81184" type="Const" version="opset1">
			<data element_type="i64" shape="3" offset="4452240" size="24" />
			<output>
				<port id="0" precision="I64">
					<dim>3</dim>
				</port>
			</output>
		</layer>
		<layer id="126" name="__module.down_blocks.0.attentions.0/aten::reshape/Reshape" type="Reshape" version="opset1">
			<data special_zero="true" />
			<input>
				<port id="0" precision="FP32">
					<dim>-1</dim>
					<dim>-1</dim>
					<dim>-1</dim>
					<dim>320</dim>
				</port>
				<port id="1" precision="I64">
					<dim>3</dim>
				</port>
			</input>
			<output>
				<port id="2" precision="FP32" names="245,hidden_states.9">
					<dim>-1</dim>
					<dim>-1</dim>
					<dim>320</dim>
				</port>
			</output>
		</layer>
		<layer id="127" name="__module.down_blocks.0.attentions.0.transformer_blocks.0.norm1/aten::layer_norm/Multiply" type="Const" version="opset1">
			<data element_type="i32" shape="1" offset="4452264" size="4" />
			<output>
				<port id="0" precision="I32">
					<dim>1</dim>
				</port>
			</output>
		</layer>
		<layer id="128" name="__module.down_blocks.0.attentions.0.transformer_blocks.0.norm1/aten::layer_norm/MVN" type="MVN" version="opset6">
			<data eps="9.9999997473787516e-06" normalize_variance="true" eps_mode="INSIDE_SQRT" />
			<input>
				<port id="0" precision="FP32">
					<dim>-1</dim>
					<dim>-1</dim>
					<dim>320</dim>
				</port>
				<port id="1" precision="I32">
					<dim>1</dim>
				</port>
			</input>
			<output>
				<port id="2" precision="FP32">
					<dim>-1</dim>
					<dim>-1</dim>
					<dim>320</dim>
				</port>
			</output>
		</layer>
		<layer id="129" name="Constant_78241" type="Const" version="opset1">
			<data element_type="f32" shape="1, 1, 320" offset="4452268" size="1280" />
			<output>
				<port id="0" precision="FP32">
					<dim>1</dim>
					<dim>1</dim>
					<dim>320</dim>
				</port>
			</output>
		</layer>
		<layer id="130" name="__module.down_blocks.0.attentions.0.transformer_blocks.0.norm1/aten::layer_norm/Multiply_1" type="Multiply" version="opset1">
			<data auto_broadcast="numpy" />
			<input>
				<port id="0" precision="FP32">
					<dim>-1</dim>
					<dim>-1</dim>
					<dim>320</dim>
				</port>
				<port id="1" precision="FP32">
					<dim>1</dim>
					<dim>1</dim>
					<dim>320</dim>
				</port>
			</input>
			<output>
				<port id="2" precision="FP32">
					<dim>-1</dim>
					<dim>-1</dim>
					<dim>320</dim>
				</port>
			</output>
		</layer>
		<layer id="131" name="Constant_78242" type="Const" version="opset1">
			<data element_type="f32" shape="1, 1, 320" offset="4453548" size="1280" />
			<output>
				<port id="0" precision="FP32">
					<dim>1</dim>
					<dim>1</dim>
					<dim>320</dim>
				</port>
			</output>
		</layer>
		<layer id="132" name="__module.down_blocks.0.attentions.0.transformer_blocks.0.norm1/aten::layer_norm/Add" type="Add" version="opset1">
			<data auto_broadcast="numpy" />
			<input>
				<port id="0" precision="FP32">
					<dim>-1</dim>
					<dim>-1</dim>
					<dim>320</dim>
				</port>
				<port id="1" precision="FP32">
					<dim>1</dim>
					<dim>1</dim>
					<dim>320</dim>
				</port>
			</input>
			<output>
				<port id="2" precision="FP32" names="255,hidden_states.11">
					<dim>-1</dim>
					<dim>-1</dim>
					<dim>320</dim>
				</port>
			</output>
		</layer>
		<layer id="133" name="self.down_blocks.0.attentions.0.transformer_blocks.0.attn1.to_q.weight" type="Const" version="opset1">
			<data element_type="u8" shape="320, 320" offset="4454828" size="102400" />
			<output>
				<port id="0" precision="U8">
					<dim>320</dim>
					<dim>320</dim>
				</port>
			</output>
		</layer>
		<layer id="134" name="Convert_1478584" type="Convert" version="opset1">
			<data destination_type="f16" />
			<input>
				<port id="0" precision="U8">
					<dim>320</dim>
					<dim>320</dim>
				</port>
			</input>
			<output>
				<port id="1" precision="FP16">
					<dim>320</dim>
					<dim>320</dim>
				</port>
			</output>
		</layer>
		<layer id="135" name="self.down_blocks.0.attentions.0.transformer_blocks.0.attn1.to_q.weight/zero_point" type="Const" version="opset1">
			<data element_type="u8" shape="320, 1" offset="4557228" size="320" />
			<output>
				<port id="0" precision="U8">
					<dim>320</dim>
					<dim>1</dim>
				</port>
			</output>
		</layer>
		<layer id="136" name="Convert_1478587" type="Convert" version="opset1">
			<data destination_type="f16" />
			<input>
				<port id="0" precision="U8">
					<dim>320</dim>
					<dim>1</dim>
				</port>
			</input>
			<output>
				<port id="1" precision="FP16">
					<dim>320</dim>
					<dim>1</dim>
				</port>
			</output>
		</layer>
		<layer id="137" name="self.down_blocks.0.attentions.0.transformer_blocks.0.attn1.to_q.weight/zero_point/subtract" type="Subtract" version="opset1">
			<data auto_broadcast="numpy" />
			<input>
				<port id="0" precision="FP16">
					<dim>320</dim>
					<dim>320</dim>
				</port>
				<port id="1" precision="FP16">
					<dim>320</dim>
					<dim>1</dim>
				</port>
			</input>
			<output>
				<port id="2" precision="FP16">
					<dim>320</dim>
					<dim>320</dim>
				</port>
			</output>
		</layer>
		<layer id="138" name="self.down_blocks.0.attentions.0.transformer_blocks.0.attn1.to_q.weight/scale" type="Const" version="opset1">
			<data element_type="f16" shape="320, 1" offset="4557548" size="640" />
			<output>
				<port id="0" precision="FP16">
					<dim>320</dim>
					<dim>1</dim>
				</port>
			</output>
		</layer>
		<layer id="139" name="self.down_blocks.0.attentions.0.transformer_blocks.0.attn1.to_q.weight/fq_weights_1" type="Multiply" version="opset1">
			<data auto_broadcast="numpy" />
			<input>
				<port id="0" precision="FP16">
					<dim>320</dim>
					<dim>320</dim>
				</port>
				<port id="1" precision="FP16">
					<dim>320</dim>
					<dim>1</dim>
				</port>
			</input>
			<output>
				<port id="2" precision="FP16">
					<dim>320</dim>
					<dim>320</dim>
				</port>
			</output>
		</layer>
		<layer id="140" name="self.down_blocks.0.attentions.0.transformer_blocks.0.attn1.to_q.weight/fq_weights_1/convert" type="Convert" version="opset1">
			<data destination_type="f32" />
			<input>
				<port id="0" precision="FP16">
					<dim>320</dim>
					<dim>320</dim>
				</port>
			</input>
			<output>
				<port id="1" precision="FP32">
					<dim>320</dim>
					<dim>320</dim>
				</port>
			</output>
		</layer>
		<layer id="141" name="__module.down_blocks.0.attentions.0.transformer_blocks.0.attn1.to_q/aten::linear/MatMul" type="MatMul" version="opset1">
			<data transpose_a="false" transpose_b="true" />
			<input>
				<port id="0" precision="FP32">
					<dim>-1</dim>
					<dim>-1</dim>
					<dim>320</dim>
				</port>
				<port id="1" precision="FP32">
					<dim>320</dim>
					<dim>320</dim>
				</port>
			</input>
			<output>
				<port id="2" precision="FP32" names="263,query.1">
					<dim>-1</dim>
					<dim>-1</dim>
					<dim>320</dim>
				</port>
			</output>
		</layer>
		<layer id="142" name="Constant_81185" type="Const" version="opset1">
			<data element_type="i64" shape="4" offset="4558188" size="32" />
			<output>
				<port id="0" precision="I64">
					<dim>4</dim>
				</port>
			</output>
		</layer>
		<layer id="143" name="__module.down_blocks.0.attentions.0.transformer_blocks.0.attn1/aten::view/Reshape" type="Reshape" version="opset1">
			<data special_zero="true" />
			<input>
				<port id="0" precision="FP32">
					<dim>-1</dim>
					<dim>-1</dim>
					<dim>320</dim>
				</port>
				<port id="1" precision="I64">
					<dim>4</dim>
				</port>
			</input>
			<output>
				<port id="2" precision="FP32" names="275">
					<dim>-1</dim>
					<dim>-1</dim>
					<dim>8</dim>
					<dim>40</dim>
				</port>
			</output>
		</layer>
		<layer id="144" name="__module.down_blocks.0.attentions.0.transformer_blocks.0.attn1/aten::transpose/Constant" type="Const" version="opset1">
			<data element_type="i32" shape="4" offset="4558220" size="16" />
			<output>
				<port id="0" precision="I32">
					<dim>4</dim>
				</port>
			</output>
		</layer>
		<layer id="145" name="__module.down_blocks.0.attentions.0.transformer_blocks.0.attn1/aten::transpose/Transpose" type="Transpose" version="opset1">
			<input>
				<port id="0" precision="FP32">
					<dim>-1</dim>
					<dim>-1</dim>
					<dim>8</dim>
					<dim>40</dim>
				</port>
				<port id="1" precision="I32">
					<dim>4</dim>
				</port>
			</input>
			<output>
				<port id="2" precision="FP32" names="276,query.3">
					<dim>-1</dim>
					<dim>8</dim>
					<dim>-1</dim>
					<dim>40</dim>
				</port>
			</output>
		</layer>
		<layer id="146" name="self.down_blocks.0.attentions.0.transformer_blocks.0.attn1.to_k.weight" type="Const" version="opset1">
			<data element_type="u8" shape="320, 320" offset="4558236" size="102400" />
			<output>
				<port id="0" precision="U8">
					<dim>320</dim>
					<dim>320</dim>
				</port>
			</output>
		</layer>
		<layer id="147" name="Convert_1474289" type="Convert" version="opset1">
			<data destination_type="f16" />
			<input>
				<port id="0" precision="U8">
					<dim>320</dim>
					<dim>320</dim>
				</port>
			</input>
			<output>
				<port id="1" precision="FP16">
					<dim>320</dim>
					<dim>320</dim>
				</port>
			</output>
		</layer>
		<layer id="148" name="self.down_blocks.0.attentions.0.transformer_blocks.0.attn1.to_k.weight/zero_point" type="Const" version="opset1">
			<data element_type="u8" shape="320, 1" offset="4660636" size="320" />
			<output>
				<port id="0" precision="U8">
					<dim>320</dim>
					<dim>1</dim>
				</port>
			</output>
		</layer>
		<layer id="149" name="Convert_1474292" type="Convert" version="opset1">
			<data destination_type="f16" />
			<input>
				<port id="0" precision="U8">
					<dim>320</dim>
					<dim>1</dim>
				</port>
			</input>
			<output>
				<port id="1" precision="FP16">
					<dim>320</dim>
					<dim>1</dim>
				</port>
			</output>
		</layer>
		<layer id="150" name="self.down_blocks.0.attentions.0.transformer_blocks.0.attn1.to_k.weight/zero_point/subtract" type="Subtract" version="opset1">
			<data auto_broadcast="numpy" />
			<input>
				<port id="0" precision="FP16">
					<dim>320</dim>
					<dim>320</dim>
				</port>
				<port id="1" precision="FP16">
					<dim>320</dim>
					<dim>1</dim>
				</port>
			</input>
			<output>
				<port id="2" precision="FP16">
					<dim>320</dim>
					<dim>320</dim>
				</port>
			</output>
		</layer>
		<layer id="151" name="self.down_blocks.0.attentions.0.transformer_blocks.0.attn1.to_k.weight/scale" type="Const" version="opset1">
			<data element_type="f16" shape="320, 1" offset="4660956" size="640" />
			<output>
				<port id="0" precision="FP16">
					<dim>320</dim>
					<dim>1</dim>
				</port>
			</output>
		</layer>
		<layer id="152" name="self.down_blocks.0.attentions.0.transformer_blocks.0.attn1.to_k.weight/fq_weights_1" type="Multiply" version="opset1">
			<data auto_broadcast="numpy" />
			<input>
				<port id="0" precision="FP16">
					<dim>320</dim>
					<dim>320</dim>
				</port>
				<port id="1" precision="FP16">
					<dim>320</dim>
					<dim>1</dim>
				</port>
			</input>
			<output>
				<port id="2" precision="FP16">
					<dim>320</dim>
					<dim>320</dim>
				</port>
			</output>
		</layer>
		<layer id="153" name="self.down_blocks.0.attentions.0.transformer_blocks.0.attn1.to_k.weight/fq_weights_1/convert" type="Convert" version="opset1">
			<data destination_type="f32" />
			<input>
				<port id="0" precision="FP16">
					<dim>320</dim>
					<dim>320</dim>
				</port>
			</input>
			<output>
				<port id="1" precision="FP32">
					<dim>320</dim>
					<dim>320</dim>
				</port>
			</output>
		</layer>
		<layer id="154" name="__module.down_blocks.0.attentions.0.transformer_blocks.0.attn1.to_k/aten::linear/MatMul" type="MatMul" version="opset1">
			<data transpose_a="false" transpose_b="true" />
			<input>
				<port id="0" precision="FP32">
					<dim>-1</dim>
					<dim>-1</dim>
					<dim>320</dim>
				</port>
				<port id="1" precision="FP32">
					<dim>320</dim>
					<dim>320</dim>
				</port>
			</input>
			<output>
				<port id="2" precision="FP32" names="265,key.1">
					<dim>-1</dim>
					<dim>-1</dim>
					<dim>320</dim>
				</port>
			</output>
		</layer>
		<layer id="155" name="Constant_81186" type="Const" version="opset1">
			<data element_type="i64" shape="4" offset="4558188" size="32" />
			<output>
				<port id="0" precision="I64">
					<dim>4</dim>
				</port>
			</output>
		</layer>
		<layer id="156" name="__module.down_blocks.0.attentions.0.transformer_blocks.0.attn1/aten::view/Reshape_1" type="Reshape" version="opset1">
			<data special_zero="true" />
			<input>
				<port id="0" precision="FP32">
					<dim>-1</dim>
					<dim>-1</dim>
					<dim>320</dim>
				</port>
				<port id="1" precision="I64">
					<dim>4</dim>
				</port>
			</input>
			<output>
				<port id="2" precision="FP32" names="278">
					<dim>-1</dim>
					<dim>-1</dim>
					<dim>8</dim>
					<dim>40</dim>
				</port>
			</output>
		</layer>
		<layer id="157" name="__module.down_blocks.0.attentions.0.transformer_blocks.0.attn1/aten::transpose/Constant_1" type="Const" version="opset1">
			<data element_type="i32" shape="4" offset="4558220" size="16" />
			<output>
				<port id="0" precision="I32">
					<dim>4</dim>
				</port>
			</output>
		</layer>
		<layer id="158" name="__module.down_blocks.0.attentions.0.transformer_blocks.0.attn1/aten::transpose/Transpose_1" type="Transpose" version="opset1">
			<input>
				<port id="0" precision="FP32">
					<dim>-1</dim>
					<dim>-1</dim>
					<dim>8</dim>
					<dim>40</dim>
				</port>
				<port id="1" precision="I32">
					<dim>4</dim>
				</port>
			</input>
			<output>
				<port id="2" precision="FP32" names="279,key.3">
					<dim>-1</dim>
					<dim>8</dim>
					<dim>-1</dim>
					<dim>40</dim>
				</port>
			</output>
		</layer>
		<layer id="159" name="self.down_blocks.0.attentions.0.transformer_blocks.0.attn1.to_v.weight" type="Const" version="opset1">
			<data element_type="u8" shape="320, 320" offset="4661596" size="102400" />
			<output>
				<port id="0" precision="U8">
					<dim>320</dim>
					<dim>320</dim>
				</port>
			</output>
		</layer>
		<layer id="160" name="Convert_1469994" type="Convert" version="opset1">
			<data destination_type="f16" />
			<input>
				<port id="0" precision="U8">
					<dim>320</dim>
					<dim>320</dim>
				</port>
			</input>
			<output>
				<port id="1" precision="FP16">
					<dim>320</dim>
					<dim>320</dim>
				</port>
			</output>
		</layer>
		<layer id="161" name="self.down_blocks.0.attentions.0.transformer_blocks.0.attn1.to_v.weight/zero_point" type="Const" version="opset1">
			<data element_type="u8" shape="320, 1" offset="4763996" size="320" />
			<output>
				<port id="0" precision="U8">
					<dim>320</dim>
					<dim>1</dim>
				</port>
			</output>
		</layer>
		<layer id="162" name="Convert_1469997" type="Convert" version="opset1">
			<data destination_type="f16" />
			<input>
				<port id="0" precision="U8">
					<dim>320</dim>
					<dim>1</dim>
				</port>
			</input>
			<output>
				<port id="1" precision="FP16">
					<dim>320</dim>
					<dim>1</dim>
				</port>
			</output>
		</layer>
		<layer id="163" name="self.down_blocks.0.attentions.0.transformer_blocks.0.attn1.to_v.weight/zero_point/subtract" type="Subtract" version="opset1">
			<data auto_broadcast="numpy" />
			<input>
				<port id="0" precision="FP16">
					<dim>320</dim>
					<dim>320</dim>
				</port>
				<port id="1" precision="FP16">
					<dim>320</dim>
					<dim>1</dim>
				</port>
			</input>
			<output>
				<port id="2" precision="FP16">
					<dim>320</dim>
					<dim>320</dim>
				</port>
			</output>
		</layer>
		<layer id="164" name="self.down_blocks.0.attentions.0.transformer_blocks.0.attn1.to_v.weight/scale" type="Const" version="opset1">
			<data element_type="f16" shape="320, 1" offset="4764316" size="640" />
			<output>
				<port id="0" precision="FP16">
					<dim>320</dim>
					<dim>1</dim>
				</port>
			</output>
		</layer>
		<layer id="165" name="self.down_blocks.0.attentions.0.transformer_blocks.0.attn1.to_v.weight/fq_weights_1" type="Multiply" version="opset1">
			<data auto_broadcast="numpy" />
			<input>
				<port id="0" precision="FP16">
					<dim>320</dim>
					<dim>320</dim>
				</port>
				<port id="1" precision="FP16">
					<dim>320</dim>
					<dim>1</dim>
				</port>
			</input>
			<output>
				<port id="2" precision="FP16">
					<dim>320</dim>
					<dim>320</dim>
				</port>
			</output>
		</layer>
		<layer id="166" name="self.down_blocks.0.attentions.0.transformer_blocks.0.attn1.to_v.weight/fq_weights_1/convert" type="Convert" version="opset1">
			<data destination_type="f32" />
			<input>
				<port id="0" precision="FP16">
					<dim>320</dim>
					<dim>320</dim>
				</port>
			</input>
			<output>
				<port id="1" precision="FP32">
					<dim>320</dim>
					<dim>320</dim>
				</port>
			</output>
		</layer>
		<layer id="167" name="__module.down_blocks.0.attentions.0.transformer_blocks.0.attn1.to_v/aten::linear/MatMul" type="MatMul" version="opset1">
			<data transpose_a="false" transpose_b="true" />
			<input>
				<port id="0" precision="FP32">
					<dim>-1</dim>
					<dim>-1</dim>
					<dim>320</dim>
				</port>
				<port id="1" precision="FP32">
					<dim>320</dim>
					<dim>320</dim>
				</port>
			</input>
			<output>
				<port id="2" precision="FP32" names="267,value.1">
					<dim>-1</dim>
					<dim>-1</dim>
					<dim>320</dim>
				</port>
			</output>
		</layer>
		<layer id="168" name="Constant_81187" type="Const" version="opset1">
			<data element_type="i64" shape="4" offset="4558188" size="32" />
			<output>
				<port id="0" precision="I64">
					<dim>4</dim>
				</port>
			</output>
		</layer>
		<layer id="169" name="__module.down_blocks.0.attentions.0.transformer_blocks.0.attn1/aten::view/Reshape_2" type="Reshape" version="opset1">
			<data special_zero="true" />
			<input>
				<port id="0" precision="FP32">
					<dim>-1</dim>
					<dim>-1</dim>
					<dim>320</dim>
				</port>
				<port id="1" precision="I64">
					<dim>4</dim>
				</port>
			</input>
			<output>
				<port id="2" precision="FP32" names="281">
					<dim>-1</dim>
					<dim>-1</dim>
					<dim>8</dim>
					<dim>40</dim>
				</port>
			</output>
		</layer>
		<layer id="170" name="__module.down_blocks.0.attentions.0.transformer_blocks.0.attn1/aten::transpose/Constant_2" type="Const" version="opset1">
			<data element_type="i32" shape="4" offset="4558220" size="16" />
			<output>
				<port id="0" precision="I32">
					<dim>4</dim>
				</port>
			</output>
		</layer>
		<layer id="171" name="__module.down_blocks.0.attentions.0.transformer_blocks.0.attn1/aten::transpose/Transpose_2" type="Transpose" version="opset1">
			<input>
				<port id="0" precision="FP32">
					<dim>-1</dim>
					<dim>-1</dim>
					<dim>8</dim>
					<dim>40</dim>
				</port>
				<port id="1" precision="I32">
					<dim>4</dim>
				</port>
			</input>
			<output>
				<port id="2" precision="FP32" names="282,value.3">
					<dim>-1</dim>
					<dim>8</dim>
					<dim>-1</dim>
					<dim>40</dim>
				</port>
			</output>
		</layer>
		<layer id="172" name="__module.down_blocks.0.attentions.0.transformer_blocks.0.attn1/aten::scaled_dot_product_attention/ScaledDotProductAttention" type="ScaledDotProductAttention" version="opset13">
			<data causal="false" />
			<input>
				<port id="0" precision="FP32">
					<dim>-1</dim>
					<dim>8</dim>
					<dim>-1</dim>
					<dim>40</dim>
				</port>
				<port id="1" precision="FP32">
					<dim>-1</dim>
					<dim>8</dim>
					<dim>-1</dim>
					<dim>40</dim>
				</port>
				<port id="2" precision="FP32">
					<dim>-1</dim>
					<dim>8</dim>
					<dim>-1</dim>
					<dim>40</dim>
				</port>
			</input>
			<output>
				<port id="3" precision="FP32" names="283,hidden_states.13">
					<dim>-1</dim>
					<dim>8</dim>
					<dim>-1</dim>
					<dim>40</dim>
				</port>
			</output>
		</layer>
		<layer id="173" name="__module.down_blocks.0.attentions.0.transformer_blocks.0.attn1/aten::transpose/Constant_3" type="Const" version="opset1">
			<data element_type="i32" shape="4" offset="4558220" size="16" />
			<output>
				<port id="0" precision="I32">
					<dim>4</dim>
				</port>
			</output>
		</layer>
		<layer id="174" name="__module.down_blocks.0.attentions.0.transformer_blocks.0.attn1/aten::transpose/Transpose_3" type="Transpose" version="opset1">
			<input>
				<port id="0" precision="FP32">
					<dim>-1</dim>
					<dim>8</dim>
					<dim>-1</dim>
					<dim>40</dim>
				</port>
				<port id="1" precision="I32">
					<dim>4</dim>
				</port>
			</input>
			<output>
				<port id="2" precision="FP32" names="284">
					<dim>-1</dim>
					<dim>-1</dim>
					<dim>8</dim>
					<dim>40</dim>
				</port>
			</output>
		</layer>
		<layer id="175" name="Constant_81188" type="Const" version="opset1">
			<data element_type="i64" shape="3" offset="4764956" size="24" />
			<output>
				<port id="0" precision="I64">
					<dim>3</dim>
				</port>
			</output>
		</layer>
		<layer id="176" name="__module.down_blocks.0.attentions.0.transformer_blocks.0.attn1/aten::reshape/Reshape" type="Reshape" version="opset1">
			<data special_zero="true" />
			<input>
				<port id="0" precision="FP32">
					<dim>-1</dim>
					<dim>-1</dim>
					<dim>8</dim>
					<dim>40</dim>
				</port>
				<port id="1" precision="I64">
					<dim>3</dim>
				</port>
			</input>
			<output>
				<port id="2" precision="FP32" names="288,289,hidden_states.15,input.27">
					<dim>-1</dim>
					<dim>-1</dim>
					<dim>320</dim>
				</port>
			</output>
		</layer>
		<layer id="177" name="self.down_blocks.0.attentions.0.transformer_blocks.0.attn1.to_out.0.weight" type="Const" version="opset1">
			<data element_type="u8" shape="320, 320" offset="4764980" size="102400" />
			<output>
				<port id="0" precision="U8">
					<dim>320</dim>
					<dim>320</dim>
				</port>
			</output>
		</layer>
		<layer id="178" name="Convert_1482879" type="Convert" version="opset1">
			<data destination_type="f16" />
			<input>
				<port id="0" precision="U8">
					<dim>320</dim>
					<dim>320</dim>
				</port>
			</input>
			<output>
				<port id="1" precision="FP16">
					<dim>320</dim>
					<dim>320</dim>
				</port>
			</output>
		</layer>
		<layer id="179" name="self.down_blocks.0.attentions.0.transformer_blocks.0.attn1.to_out.0.weight/zero_point" type="Const" version="opset1">
			<data element_type="u8" shape="320, 1" offset="4867380" size="320" />
			<output>
				<port id="0" precision="U8">
					<dim>320</dim>
					<dim>1</dim>
				</port>
			</output>
		</layer>
		<layer id="180" name="Convert_1482882" type="Convert" version="opset1">
			<data destination_type="f16" />
			<input>
				<port id="0" precision="U8">
					<dim>320</dim>
					<dim>1</dim>
				</port>
			</input>
			<output>
				<port id="1" precision="FP16">
					<dim>320</dim>
					<dim>1</dim>
				</port>
			</output>
		</layer>
		<layer id="181" name="self.down_blocks.0.attentions.0.transformer_blocks.0.attn1.to_out.0.weight/zero_point/subtract" type="Subtract" version="opset1">
			<data auto_broadcast="numpy" />
			<input>
				<port id="0" precision="FP16">
					<dim>320</dim>
					<dim>320</dim>
				</port>
				<port id="1" precision="FP16">
					<dim>320</dim>
					<dim>1</dim>
				</port>
			</input>
			<output>
				<port id="2" precision="FP16">
					<dim>320</dim>
					<dim>320</dim>
				</port>
			</output>
		</layer>
		<layer id="182" name="self.down_blocks.0.attentions.0.transformer_blocks.0.attn1.to_out.0.weight/scale" type="Const" version="opset1">
			<data element_type="f16" shape="320, 1" offset="4867700" size="640" />
			<output>
				<port id="0" precision="FP16">
					<dim>320</dim>
					<dim>1</dim>
				</port>
			</output>
		</layer>
		<layer id="183" name="self.down_blocks.0.attentions.0.transformer_blocks.0.attn1.to_out.0.weight/fq_weights_1" type="Multiply" version="opset1">
			<data auto_broadcast="numpy" />
			<input>
				<port id="0" precision="FP16">
					<dim>320</dim>
					<dim>320</dim>
				</port>
				<port id="1" precision="FP16">
					<dim>320</dim>
					<dim>1</dim>
				</port>
			</input>
			<output>
				<port id="2" precision="FP16">
					<dim>320</dim>
					<dim>320</dim>
				</port>
			</output>
		</layer>
		<layer id="184" name="self.down_blocks.0.attentions.0.transformer_blocks.0.attn1.to_out.0.weight/fq_weights_1/convert" type="Convert" version="opset1">
			<data destination_type="f32" />
			<input>
				<port id="0" precision="FP16">
					<dim>320</dim>
					<dim>320</dim>
				</port>
			</input>
			<output>
				<port id="1" precision="FP32">
					<dim>320</dim>
					<dim>320</dim>
				</port>
			</output>
		</layer>
		<layer id="185" name="__module.down_blocks.0.attentions.0.transformer_blocks.0.attn1.to_out.0/aten::linear/MatMul" type="MatMul" version="opset1">
			<data transpose_a="false" transpose_b="true" />
			<input>
				<port id="0" precision="FP32">
					<dim>-1</dim>
					<dim>-1</dim>
					<dim>320</dim>
				</port>
				<port id="1" precision="FP32">
					<dim>320</dim>
					<dim>320</dim>
				</port>
			</input>
			<output>
				<port id="2" precision="FP32">
					<dim>-1</dim>
					<dim>-1</dim>
					<dim>320</dim>
				</port>
			</output>
		</layer>
		<layer id="186" name="Constant_78243" type="Const" version="opset1">
			<data element_type="f32" shape="1, 1, 320" offset="4868340" size="1280" />
			<output>
				<port id="0" precision="FP32">
					<dim>1</dim>
					<dim>1</dim>
					<dim>320</dim>
				</port>
			</output>
		</layer>
		<layer id="187" name="__module.down_blocks.0.attentions.0.transformer_blocks.0.attn1.to_out.0/aten::linear/Add" type="Add" version="opset1">
			<data auto_broadcast="numpy" />
			<input>
				<port id="0" precision="FP32">
					<dim>-1</dim>
					<dim>-1</dim>
					<dim>320</dim>
				</port>
				<port id="1" precision="FP32">
					<dim>1</dim>
					<dim>1</dim>
					<dim>320</dim>
				</port>
			</input>
			<output>
				<port id="2" precision="FP32" names="292,294,attn_output.1,input.29">
					<dim>-1</dim>
					<dim>-1</dim>
					<dim>320</dim>
				</port>
			</output>
		</layer>
		<layer id="188" name="__module.down_blocks.0.attentions.0.transformer_blocks.0/aten::add/Add" type="Add" version="opset1">
			<data auto_broadcast="numpy" />
			<input>
				<port id="0" precision="FP32">
					<dim>-1</dim>
					<dim>-1</dim>
					<dim>320</dim>
				</port>
				<port id="1" precision="FP32">
					<dim>-1</dim>
					<dim>-1</dim>
					<dim>320</dim>
				</port>
			</input>
			<output>
				<port id="2" precision="FP32" names="295,input.31">
					<dim>-1</dim>
					<dim>-1</dim>
					<dim>320</dim>
				</port>
			</output>
		</layer>
		<layer id="189" name="__module.down_blocks.0.attentions.0.transformer_blocks.0.norm2/aten::layer_norm/Multiply" type="Const" version="opset1">
			<data element_type="i32" shape="1" offset="4452264" size="4" />
			<output>
				<port id="0" precision="I32">
					<dim>1</dim>
				</port>
			</output>
		</layer>
		<layer id="190" name="__module.down_blocks.0.attentions.0.transformer_blocks.0.norm2/aten::layer_norm/MVN" type="MVN" version="opset6">
			<data eps="9.9999997473787516e-06" normalize_variance="true" eps_mode="INSIDE_SQRT" />
			<input>
				<port id="0" precision="FP32">
					<dim>-1</dim>
					<dim>-1</dim>
					<dim>320</dim>
				</port>
				<port id="1" precision="I32">
					<dim>1</dim>
				</port>
			</input>
			<output>
				<port id="2" precision="FP32">
					<dim>-1</dim>
					<dim>-1</dim>
					<dim>320</dim>
				</port>
			</output>
		</layer>
		<layer id="191" name="Constant_78244" type="Const" version="opset1">
			<data element_type="f32" shape="1, 1, 320" offset="4869620" size="1280" />
			<output>
				<port id="0" precision="FP32">
					<dim>1</dim>
					<dim>1</dim>
					<dim>320</dim>
				</port>
			</output>
		</layer>
		<layer id="192" name="__module.down_blocks.0.attentions.0.transformer_blocks.0.norm2/aten::layer_norm/Multiply_1" type="Multiply" version="opset1">
			<data auto_broadcast="numpy" />
			<input>
				<port id="0" precision="FP32">
					<dim>-1</dim>
					<dim>-1</dim>
					<dim>320</dim>
				</port>
				<port id="1" precision="FP32">
					<dim>1</dim>
					<dim>1</dim>
					<dim>320</dim>
				</port>
			</input>
			<output>
				<port id="2" precision="FP32">
					<dim>-1</dim>
					<dim>-1</dim>
					<dim>320</dim>
				</port>
			</output>
		</layer>
		<layer id="193" name="Constant_78245" type="Const" version="opset1">
			<data element_type="f32" shape="1, 1, 320" offset="4870900" size="1280" />
			<output>
				<port id="0" precision="FP32">
					<dim>1</dim>
					<dim>1</dim>
					<dim>320</dim>
				</port>
			</output>
		</layer>
		<layer id="194" name="__module.down_blocks.0.attentions.0.transformer_blocks.0.norm2/aten::layer_norm/Add" type="Add" version="opset1">
			<data auto_broadcast="numpy" />
			<input>
				<port id="0" precision="FP32">
					<dim>-1</dim>
					<dim>-1</dim>
					<dim>320</dim>
				</port>
				<port id="1" precision="FP32">
					<dim>1</dim>
					<dim>1</dim>
					<dim>320</dim>
				</port>
			</input>
			<output>
				<port id="2" precision="FP32" names="299,input.33">
					<dim>-1</dim>
					<dim>-1</dim>
					<dim>320</dim>
				</port>
			</output>
		</layer>
		<layer id="195" name="self.down_blocks.0.attentions.0.transformer_blocks.0.attn2.to_q.weight" type="Const" version="opset1">
			<data element_type="u8" shape="320, 320" offset="4872180" size="102400" />
			<output>
				<port id="0" precision="U8">
					<dim>320</dim>
					<dim>320</dim>
				</port>
			</output>
		</layer>
		<layer id="196" name="Convert_1487174" type="Convert" version="opset1">
			<data destination_type="f16" />
			<input>
				<port id="0" precision="U8">
					<dim>320</dim>
					<dim>320</dim>
				</port>
			</input>
			<output>
				<port id="1" precision="FP16">
					<dim>320</dim>
					<dim>320</dim>
				</port>
			</output>
		</layer>
		<layer id="197" name="self.down_blocks.0.attentions.0.transformer_blocks.0.attn2.to_q.weight/zero_point" type="Const" version="opset1">
			<data element_type="u8" shape="320, 1" offset="4974580" size="320" />
			<output>
				<port id="0" precision="U8">
					<dim>320</dim>
					<dim>1</dim>
				</port>
			</output>
		</layer>
		<layer id="198" name="Convert_1487177" type="Convert" version="opset1">
			<data destination_type="f16" />
			<input>
				<port id="0" precision="U8">
					<dim>320</dim>
					<dim>1</dim>
				</port>
			</input>
			<output>
				<port id="1" precision="FP16">
					<dim>320</dim>
					<dim>1</dim>
				</port>
			</output>
		</layer>
		<layer id="199" name="self.down_blocks.0.attentions.0.transformer_blocks.0.attn2.to_q.weight/zero_point/subtract" type="Subtract" version="opset1">
			<data auto_broadcast="numpy" />
			<input>
				<port id="0" precision="FP16">
					<dim>320</dim>
					<dim>320</dim>
				</port>
				<port id="1" precision="FP16">
					<dim>320</dim>
					<dim>1</dim>
				</port>
			</input>
			<output>
				<port id="2" precision="FP16">
					<dim>320</dim>
					<dim>320</dim>
				</port>
			</output>
		</layer>
		<layer id="200" name="self.down_blocks.0.attentions.0.transformer_blocks.0.attn2.to_q.weight/scale" type="Const" version="opset1">
			<data element_type="f16" shape="320, 1" offset="4974900" size="640" />
			<output>
				<port id="0" precision="FP16">
					<dim>320</dim>
					<dim>1</dim>
				</port>
			</output>
		</layer>
		<layer id="201" name="self.down_blocks.0.attentions.0.transformer_blocks.0.attn2.to_q.weight/fq_weights_1" type="Multiply" version="opset1">
			<data auto_broadcast="numpy" />
			<input>
				<port id="0" precision="FP16">
					<dim>320</dim>
					<dim>320</dim>
				</port>
				<port id="1" precision="FP16">
					<dim>320</dim>
					<dim>1</dim>
				</port>
			</input>
			<output>
				<port id="2" precision="FP16">
					<dim>320</dim>
					<dim>320</dim>
				</port>
			</output>
		</layer>
		<layer id="202" name="self.down_blocks.0.attentions.0.transformer_blocks.0.attn2.to_q.weight/fq_weights_1/convert" type="Convert" version="opset1">
			<data destination_type="f32" />
			<input>
				<port id="0" precision="FP16">
					<dim>320</dim>
					<dim>320</dim>
				</port>
			</input>
			<output>
				<port id="1" precision="FP32">
					<dim>320</dim>
					<dim>320</dim>
				</port>
			</output>
		</layer>
		<layer id="203" name="__module.down_blocks.0.attentions.0.transformer_blocks.0.attn2.to_q/aten::linear/MatMul" type="MatMul" version="opset1">
			<data transpose_a="false" transpose_b="true" />
			<input>
				<port id="0" precision="FP32">
					<dim>-1</dim>
					<dim>-1</dim>
					<dim>320</dim>
				</port>
				<port id="1" precision="FP32">
					<dim>320</dim>
					<dim>320</dim>
				</port>
			</input>
			<output>
				<port id="2" precision="FP32" names="307,query.5">
					<dim>-1</dim>
					<dim>-1</dim>
					<dim>320</dim>
				</port>
			</output>
		</layer>
		<layer id="204" name="Constant_81189" type="Const" version="opset1">
			<data element_type="i64" shape="4" offset="4558188" size="32" />
			<output>
				<port id="0" precision="I64">
					<dim>4</dim>
				</port>
			</output>
		</layer>
		<layer id="205" name="__module.down_blocks.0.attentions.0.transformer_blocks.0.attn2/aten::view/Reshape" type="Reshape" version="opset1">
			<data special_zero="true" />
			<input>
				<port id="0" precision="FP32">
					<dim>-1</dim>
					<dim>-1</dim>
					<dim>320</dim>
				</port>
				<port id="1" precision="I64">
					<dim>4</dim>
				</port>
			</input>
			<output>
				<port id="2" precision="FP32" names="319">
					<dim>-1</dim>
					<dim>-1</dim>
					<dim>8</dim>
					<dim>40</dim>
				</port>
			</output>
		</layer>
		<layer id="206" name="__module.down_blocks.0.attentions.0.transformer_blocks.0.attn2/aten::transpose/Constant" type="Const" version="opset1">
			<data element_type="i32" shape="4" offset="4558220" size="16" />
			<output>
				<port id="0" precision="I32">
					<dim>4</dim>
				</port>
			</output>
		</layer>
		<layer id="207" name="__module.down_blocks.0.attentions.0.transformer_blocks.0.attn2/aten::transpose/Transpose" type="Transpose" version="opset1">
			<input>
				<port id="0" precision="FP32">
					<dim>-1</dim>
					<dim>-1</dim>
					<dim>8</dim>
					<dim>40</dim>
				</port>
				<port id="1" precision="I32">
					<dim>4</dim>
				</port>
			</input>
			<output>
				<port id="2" precision="FP32" names="320,query.7">
					<dim>-1</dim>
					<dim>8</dim>
					<dim>-1</dim>
					<dim>40</dim>
				</port>
			</output>
		</layer>
		<layer id="208" name="self.down_blocks.0.attentions.0.transformer_blocks.0.attn2.to_k.weight" type="Const" version="opset1">
			<data element_type="u8" shape="320, 768" offset="4975540" size="245760" />
			<output>
				<port id="0" precision="U8">
					<dim>320</dim>
					<dim>768</dim>
				</port>
			</output>
		</layer>
		<layer id="209" name="Convert_1414159" type="Convert" version="opset1">
			<data destination_type="f16" />
			<input>
				<port id="0" precision="U8">
					<dim>320</dim>
					<dim>768</dim>
				</port>
			</input>
			<output>
				<port id="1" precision="FP16">
					<dim>320</dim>
					<dim>768</dim>
				</port>
			</output>
		</layer>
		<layer id="210" name="self.down_blocks.0.attentions.0.transformer_blocks.0.attn2.to_k.weight/zero_point" type="Const" version="opset1">
			<data element_type="u8" shape="320, 1" offset="5221300" size="320" />
			<output>
				<port id="0" precision="U8">
					<dim>320</dim>
					<dim>1</dim>
				</port>
			</output>
		</layer>
		<layer id="211" name="Convert_1414162" type="Convert" version="opset1">
			<data destination_type="f16" />
			<input>
				<port id="0" precision="U8">
					<dim>320</dim>
					<dim>1</dim>
				</port>
			</input>
			<output>
				<port id="1" precision="FP16">
					<dim>320</dim>
					<dim>1</dim>
				</port>
			</output>
		</layer>
		<layer id="212" name="self.down_blocks.0.attentions.0.transformer_blocks.0.attn2.to_k.weight/zero_point/subtract" type="Subtract" version="opset1">
			<data auto_broadcast="numpy" />
			<input>
				<port id="0" precision="FP16">
					<dim>320</dim>
					<dim>768</dim>
				</port>
				<port id="1" precision="FP16">
					<dim>320</dim>
					<dim>1</dim>
				</port>
			</input>
			<output>
				<port id="2" precision="FP16">
					<dim>320</dim>
					<dim>768</dim>
				</port>
			</output>
		</layer>
		<layer id="213" name="self.down_blocks.0.attentions.0.transformer_blocks.0.attn2.to_k.weight/scale" type="Const" version="opset1">
			<data element_type="f16" shape="320, 1" offset="5221620" size="640" />
			<output>
				<port id="0" precision="FP16">
					<dim>320</dim>
					<dim>1</dim>
				</port>
			</output>
		</layer>
		<layer id="214" name="self.down_blocks.0.attentions.0.transformer_blocks.0.attn2.to_k.weight/fq_weights_1" type="Multiply" version="opset1">
			<data auto_broadcast="numpy" />
			<input>
				<port id="0" precision="FP16">
					<dim>320</dim>
					<dim>768</dim>
				</port>
				<port id="1" precision="FP16">
					<dim>320</dim>
					<dim>1</dim>
				</port>
			</input>
			<output>
				<port id="2" precision="FP16">
					<dim>320</dim>
					<dim>768</dim>
				</port>
			</output>
		</layer>
		<layer id="215" name="self.down_blocks.0.attentions.0.transformer_blocks.0.attn2.to_k.weight/fq_weights_1/convert" type="Convert" version="opset1">
			<data destination_type="f32" />
			<input>
				<port id="0" precision="FP16">
					<dim>320</dim>
					<dim>768</dim>
				</port>
			</input>
			<output>
				<port id="1" precision="FP32">
					<dim>320</dim>
					<dim>768</dim>
				</port>
			</output>
		</layer>
		<layer id="216" name="__module.down_blocks.0.attentions.0.transformer_blocks.0.attn2.to_k/aten::linear/MatMul" type="MatMul" version="opset1">
			<data transpose_a="false" transpose_b="true" />
			<input>
				<port id="0" precision="FP32">
					<dim>-1</dim>
					<dim>77</dim>
					<dim>768</dim>
				</port>
				<port id="1" precision="FP32">
					<dim>320</dim>
					<dim>768</dim>
				</port>
			</input>
			<output>
				<port id="2" precision="FP32" names="309,key.5">
					<dim>-1</dim>
					<dim>77</dim>
					<dim>320</dim>
				</port>
			</output>
		</layer>
		<layer id="217" name="Constant_81190" type="Const" version="opset1">
			<data element_type="i64" shape="4" offset="4558188" size="32" />
			<output>
				<port id="0" precision="I64">
					<dim>4</dim>
				</port>
			</output>
		</layer>
		<layer id="218" name="__module.down_blocks.0.attentions.0.transformer_blocks.0.attn2/aten::view/Reshape_1" type="Reshape" version="opset1">
			<data special_zero="true" />
			<input>
				<port id="0" precision="FP32">
					<dim>-1</dim>
					<dim>77</dim>
					<dim>320</dim>
				</port>
				<port id="1" precision="I64">
					<dim>4</dim>
				</port>
			</input>
			<output>
				<port id="2" precision="FP32" names="322">
					<dim>-1</dim>
					<dim>77</dim>
					<dim>8</dim>
					<dim>40</dim>
				</port>
			</output>
		</layer>
		<layer id="219" name="__module.down_blocks.0.attentions.0.transformer_blocks.0.attn2/aten::transpose/Constant_1" type="Const" version="opset1">
			<data element_type="i32" shape="4" offset="4558220" size="16" />
			<output>
				<port id="0" precision="I32">
					<dim>4</dim>
				</port>
			</output>
		</layer>
		<layer id="220" name="__module.down_blocks.0.attentions.0.transformer_blocks.0.attn2/aten::transpose/Transpose_1" type="Transpose" version="opset1">
			<input>
				<port id="0" precision="FP32">
					<dim>-1</dim>
					<dim>77</dim>
					<dim>8</dim>
					<dim>40</dim>
				</port>
				<port id="1" precision="I32">
					<dim>4</dim>
				</port>
			</input>
			<output>
				<port id="2" precision="FP32" names="323,key.7">
					<dim>-1</dim>
					<dim>8</dim>
					<dim>77</dim>
					<dim>40</dim>
				</port>
			</output>
		</layer>
		<layer id="221" name="self.down_blocks.0.attentions.0.transformer_blocks.0.attn2.to_v.weight" type="Const" version="opset1">
			<data element_type="u8" shape="320, 768" offset="5222260" size="245760" />
			<output>
				<port id="0" precision="U8">
					<dim>320</dim>
					<dim>768</dim>
				</port>
			</output>
		</layer>
		<layer id="222" name="Convert_1409864" type="Convert" version="opset1">
			<data destination_type="f16" />
			<input>
				<port id="0" precision="U8">
					<dim>320</dim>
					<dim>768</dim>
				</port>
			</input>
			<output>
				<port id="1" precision="FP16">
					<dim>320</dim>
					<dim>768</dim>
				</port>
			</output>
		</layer>
		<layer id="223" name="self.down_blocks.0.attentions.0.transformer_blocks.0.attn2.to_v.weight/zero_point" type="Const" version="opset1">
			<data element_type="u8" shape="320, 1" offset="5468020" size="320" />
			<output>
				<port id="0" precision="U8">
					<dim>320</dim>
					<dim>1</dim>
				</port>
			</output>
		</layer>
		<layer id="224" name="Convert_1409867" type="Convert" version="opset1">
			<data destination_type="f16" />
			<input>
				<port id="0" precision="U8">
					<dim>320</dim>
					<dim>1</dim>
				</port>
			</input>
			<output>
				<port id="1" precision="FP16">
					<dim>320</dim>
					<dim>1</dim>
				</port>
			</output>
		</layer>
		<layer id="225" name="self.down_blocks.0.attentions.0.transformer_blocks.0.attn2.to_v.weight/zero_point/subtract" type="Subtract" version="opset1">
			<data auto_broadcast="numpy" />
			<input>
				<port id="0" precision="FP16">
					<dim>320</dim>
					<dim>768</dim>
				</port>
				<port id="1" precision="FP16">
					<dim>320</dim>
					<dim>1</dim>
				</port>
			</input>
			<output>
				<port id="2" precision="FP16">
					<dim>320</dim>
					<dim>768</dim>
				</port>
			</output>
		</layer>
		<layer id="226" name="self.down_blocks.0.attentions.0.transformer_blocks.0.attn2.to_v.weight/scale" type="Const" version="opset1">
			<data element_type="f16" shape="320, 1" offset="5468340" size="640" />
			<output>
				<port id="0" precision="FP16">
					<dim>320</dim>
					<dim>1</dim>
				</port>
			</output>
		</layer>
		<layer id="227" name="self.down_blocks.0.attentions.0.transformer_blocks.0.attn2.to_v.weight/fq_weights_1" type="Multiply" version="opset1">
			<data auto_broadcast="numpy" />
			<input>
				<port id="0" precision="FP16">
					<dim>320</dim>
					<dim>768</dim>
				</port>
				<port id="1" precision="FP16">
					<dim>320</dim>
					<dim>1</dim>
				</port>
			</input>
			<output>
				<port id="2" precision="FP16">
					<dim>320</dim>
					<dim>768</dim>
				</port>
			</output>
		</layer>
		<layer id="228" name="self.down_blocks.0.attentions.0.transformer_blocks.0.attn2.to_v.weight/fq_weights_1/convert" type="Convert" version="opset1">
			<data destination_type="f32" />
			<input>
				<port id="0" precision="FP16">
					<dim>320</dim>
					<dim>768</dim>
				</port>
			</input>
			<output>
				<port id="1" precision="FP32">
					<dim>320</dim>
					<dim>768</dim>
				</port>
			</output>
		</layer>
		<layer id="229" name="__module.down_blocks.0.attentions.0.transformer_blocks.0.attn2.to_v/aten::linear/MatMul" type="MatMul" version="opset1">
			<data transpose_a="false" transpose_b="true" />
			<input>
				<port id="0" precision="FP32">
					<dim>-1</dim>
					<dim>77</dim>
					<dim>768</dim>
				</port>
				<port id="1" precision="FP32">
					<dim>320</dim>
					<dim>768</dim>
				</port>
			</input>
			<output>
				<port id="2" precision="FP32" names="311,value.5">
					<dim>-1</dim>
					<dim>77</dim>
					<dim>320</dim>
				</port>
			</output>
		</layer>
		<layer id="230" name="Constant_81191" type="Const" version="opset1">
			<data element_type="i64" shape="4" offset="4558188" size="32" />
			<output>
				<port id="0" precision="I64">
					<dim>4</dim>
				</port>
			</output>
		</layer>
		<layer id="231" name="__module.down_blocks.0.attentions.0.transformer_blocks.0.attn2/aten::view/Reshape_2" type="Reshape" version="opset1">
			<data special_zero="true" />
			<input>
				<port id="0" precision="FP32">
					<dim>-1</dim>
					<dim>77</dim>
					<dim>320</dim>
				</port>
				<port id="1" precision="I64">
					<dim>4</dim>
				</port>
			</input>
			<output>
				<port id="2" precision="FP32" names="325">
					<dim>-1</dim>
					<dim>77</dim>
					<dim>8</dim>
					<dim>40</dim>
				</port>
			</output>
		</layer>
		<layer id="232" name="__module.down_blocks.0.attentions.0.transformer_blocks.0.attn2/aten::transpose/Constant_2" type="Const" version="opset1">
			<data element_type="i32" shape="4" offset="4558220" size="16" />
			<output>
				<port id="0" precision="I32">
					<dim>4</dim>
				</port>
			</output>
		</layer>
		<layer id="233" name="__module.down_blocks.0.attentions.0.transformer_blocks.0.attn2/aten::transpose/Transpose_2" type="Transpose" version="opset1">
			<input>
				<port id="0" precision="FP32">
					<dim>-1</dim>
					<dim>77</dim>
					<dim>8</dim>
					<dim>40</dim>
				</port>
				<port id="1" precision="I32">
					<dim>4</dim>
				</port>
			</input>
			<output>
				<port id="2" precision="FP32" names="326,value.7">
					<dim>-1</dim>
					<dim>8</dim>
					<dim>77</dim>
					<dim>40</dim>
				</port>
			</output>
		</layer>
		<layer id="234" name="__module.down_blocks.0.attentions.0.transformer_blocks.0.attn2/aten::scaled_dot_product_attention/ScaledDotProductAttention" type="ScaledDotProductAttention" version="opset13">
			<data causal="false" />
			<input>
				<port id="0" precision="FP32">
					<dim>-1</dim>
					<dim>8</dim>
					<dim>-1</dim>
					<dim>40</dim>
				</port>
				<port id="1" precision="FP32">
					<dim>-1</dim>
					<dim>8</dim>
					<dim>77</dim>
					<dim>40</dim>
				</port>
				<port id="2" precision="FP32">
					<dim>-1</dim>
					<dim>8</dim>
					<dim>77</dim>
					<dim>40</dim>
				</port>
			</input>
			<output>
				<port id="3" precision="FP32" names="327,hidden_states.19">
					<dim>-1</dim>
					<dim>8</dim>
					<dim>-1</dim>
					<dim>40</dim>
				</port>
			</output>
		</layer>
		<layer id="235" name="__module.down_blocks.0.attentions.0.transformer_blocks.0.attn2/aten::transpose/Constant_3" type="Const" version="opset1">
			<data element_type="i32" shape="4" offset="4558220" size="16" />
			<output>
				<port id="0" precision="I32">
					<dim>4</dim>
				</port>
			</output>
		</layer>
		<layer id="236" name="__module.down_blocks.0.attentions.0.transformer_blocks.0.attn2/aten::transpose/Transpose_3" type="Transpose" version="opset1">
			<input>
				<port id="0" precision="FP32">
					<dim>-1</dim>
					<dim>8</dim>
					<dim>-1</dim>
					<dim>40</dim>
				</port>
				<port id="1" precision="I32">
					<dim>4</dim>
				</port>
			</input>
			<output>
				<port id="2" precision="FP32" names="328">
					<dim>-1</dim>
					<dim>-1</dim>
					<dim>8</dim>
					<dim>40</dim>
				</port>
			</output>
		</layer>
		<layer id="237" name="Constant_81192" type="Const" version="opset1">
			<data element_type="i64" shape="3" offset="4764956" size="24" />
			<output>
				<port id="0" precision="I64">
					<dim>3</dim>
				</port>
			</output>
		</layer>
		<layer id="238" name="__module.down_blocks.0.attentions.0.transformer_blocks.0.attn2/aten::reshape/Reshape" type="Reshape" version="opset1">
			<data special_zero="true" />
			<input>
				<port id="0" precision="FP32">
					<dim>-1</dim>
					<dim>-1</dim>
					<dim>8</dim>
					<dim>40</dim>
				</port>
				<port id="1" precision="I64">
					<dim>3</dim>
				</port>
			</input>
			<output>
				<port id="2" precision="FP32" names="332,333,hidden_states.21,input.35">
					<dim>-1</dim>
					<dim>-1</dim>
					<dim>320</dim>
				</port>
			</output>
		</layer>
		<layer id="239" name="self.down_blocks.0.attentions.0.transformer_blocks.0.attn2.to_out.0.weight" type="Const" version="opset1">
			<data element_type="u8" shape="320, 320" offset="5468980" size="102400" />
			<output>
				<port id="0" precision="U8">
					<dim>320</dim>
					<dim>320</dim>
				</port>
			</output>
		</layer>
		<layer id="240" name="Convert_1491469" type="Convert" version="opset1">
			<data destination_type="f16" />
			<input>
				<port id="0" precision="U8">
					<dim>320</dim>
					<dim>320</dim>
				</port>
			</input>
			<output>
				<port id="1" precision="FP16">
					<dim>320</dim>
					<dim>320</dim>
				</port>
			</output>
		</layer>
		<layer id="241" name="self.down_blocks.0.attentions.0.transformer_blocks.0.attn2.to_out.0.weight/zero_point" type="Const" version="opset1">
			<data element_type="u8" shape="320, 1" offset="5571380" size="320" />
			<output>
				<port id="0" precision="U8">
					<dim>320</dim>
					<dim>1</dim>
				</port>
			</output>
		</layer>
		<layer id="242" name="Convert_1491472" type="Convert" version="opset1">
			<data destination_type="f16" />
			<input>
				<port id="0" precision="U8">
					<dim>320</dim>
					<dim>1</dim>
				</port>
			</input>
			<output>
				<port id="1" precision="FP16">
					<dim>320</dim>
					<dim>1</dim>
				</port>
			</output>
		</layer>
		<layer id="243" name="self.down_blocks.0.attentions.0.transformer_blocks.0.attn2.to_out.0.weight/zero_point/subtract" type="Subtract" version="opset1">
			<data auto_broadcast="numpy" />
			<input>
				<port id="0" precision="FP16">
					<dim>320</dim>
					<dim>320</dim>
				</port>
				<port id="1" precision="FP16">
					<dim>320</dim>
					<dim>1</dim>
				</port>
			</input>
			<output>
				<port id="2" precision="FP16">
					<dim>320</dim>
					<dim>320</dim>
				</port>
			</output>
		</layer>
		<layer id="244" name="self.down_blocks.0.attentions.0.transformer_blocks.0.attn2.to_out.0.weight/scale" type="Const" version="opset1">
			<data element_type="f16" shape="320, 1" offset="5571700" size="640" />
			<output>
				<port id="0" precision="FP16">
					<dim>320</dim>
					<dim>1</dim>
				</port>
			</output>
		</layer>
		<layer id="245" name="self.down_blocks.0.attentions.0.transformer_blocks.0.attn2.to_out.0.weight/fq_weights_1" type="Multiply" version="opset1">
			<data auto_broadcast="numpy" />
			<input>
				<port id="0" precision="FP16">
					<dim>320</dim>
					<dim>320</dim>
				</port>
				<port id="1" precision="FP16">
					<dim>320</dim>
					<dim>1</dim>
				</port>
			</input>
			<output>
				<port id="2" precision="FP16">
					<dim>320</dim>
					<dim>320</dim>
				</port>
			</output>
		</layer>
		<layer id="246" name="self.down_blocks.0.attentions.0.transformer_blocks.0.attn2.to_out.0.weight/fq_weights_1/convert" type="Convert" version="opset1">
			<data destination_type="f32" />
			<input>
				<port id="0" precision="FP16">
					<dim>320</dim>
					<dim>320</dim>
				</port>
			</input>
			<output>
				<port id="1" precision="FP32">
					<dim>320</dim>
					<dim>320</dim>
				</port>
			</output>
		</layer>
		<layer id="247" name="__module.down_blocks.0.attentions.0.transformer_blocks.0.attn2.to_out.0/aten::linear/MatMul" type="MatMul" version="opset1">
			<data transpose_a="false" transpose_b="true" />
			<input>
				<port id="0" precision="FP32">
					<dim>-1</dim>
					<dim>-1</dim>
					<dim>320</dim>
				</port>
				<port id="1" precision="FP32">
					<dim>320</dim>
					<dim>320</dim>
				</port>
			</input>
			<output>
				<port id="2" precision="FP32">
					<dim>-1</dim>
					<dim>-1</dim>
					<dim>320</dim>
				</port>
			</output>
		</layer>
		<layer id="248" name="Constant_78246" type="Const" version="opset1">
			<data element_type="f32" shape="1, 1, 320" offset="5572340" size="1280" />
			<output>
				<port id="0" precision="FP32">
					<dim>1</dim>
					<dim>1</dim>
					<dim>320</dim>
				</port>
			</output>
		</layer>
		<layer id="249" name="__module.down_blocks.0.attentions.0.transformer_blocks.0.attn2.to_out.0/aten::linear/Add" type="Add" version="opset1">
			<data auto_broadcast="numpy" />
			<input>
				<port id="0" precision="FP32">
					<dim>-1</dim>
					<dim>-1</dim>
					<dim>320</dim>
				</port>
				<port id="1" precision="FP32">
					<dim>1</dim>
					<dim>1</dim>
					<dim>320</dim>
				</port>
			</input>
			<output>
				<port id="2" precision="FP32" names="336,338,attn_output.3,input.37">
					<dim>-1</dim>
					<dim>-1</dim>
					<dim>320</dim>
				</port>
			</output>
		</layer>
		<layer id="250" name="__module.down_blocks.0.attentions.0.transformer_blocks.0/aten::add/Add_1" type="Add" version="opset1">
			<data auto_broadcast="numpy" />
			<input>
				<port id="0" precision="FP32">
					<dim>-1</dim>
					<dim>-1</dim>
					<dim>320</dim>
				</port>
				<port id="1" precision="FP32">
					<dim>-1</dim>
					<dim>-1</dim>
					<dim>320</dim>
				</port>
			</input>
			<output>
				<port id="2" precision="FP32" names="339,input.39">
					<dim>-1</dim>
					<dim>-1</dim>
					<dim>320</dim>
				</port>
			</output>
		</layer>
		<layer id="251" name="__module.down_blocks.0.attentions.0.transformer_blocks.0.norm3/aten::layer_norm/Multiply" type="Const" version="opset1">
			<data element_type="i32" shape="1" offset="4452264" size="4" />
			<output>
				<port id="0" precision="I32">
					<dim>1</dim>
				</port>
			</output>
		</layer>
		<layer id="252" name="__module.down_blocks.0.attentions.0.transformer_blocks.0.norm3/aten::layer_norm/MVN" type="MVN" version="opset6">
			<data eps="9.9999997473787516e-06" normalize_variance="true" eps_mode="INSIDE_SQRT" />
			<input>
				<port id="0" precision="FP32">
					<dim>-1</dim>
					<dim>-1</dim>
					<dim>320</dim>
				</port>
				<port id="1" precision="I32">
					<dim>1</dim>
				</port>
			</input>
			<output>
				<port id="2" precision="FP32">
					<dim>-1</dim>
					<dim>-1</dim>
					<dim>320</dim>
				</port>
			</output>
		</layer>
		<layer id="253" name="Constant_78247" type="Const" version="opset1">
			<data element_type="f32" shape="1, 1, 320" offset="5573620" size="1280" />
			<output>
				<port id="0" precision="FP32">
					<dim>1</dim>
					<dim>1</dim>
					<dim>320</dim>
				</port>
			</output>
		</layer>
		<layer id="254" name="__module.down_blocks.0.attentions.0.transformer_blocks.0.norm3/aten::layer_norm/Multiply_1" type="Multiply" version="opset1">
			<data auto_broadcast="numpy" />
			<input>
				<port id="0" precision="FP32">
					<dim>-1</dim>
					<dim>-1</dim>
					<dim>320</dim>
				</port>
				<port id="1" precision="FP32">
					<dim>1</dim>
					<dim>1</dim>
					<dim>320</dim>
				</port>
			</input>
			<output>
				<port id="2" precision="FP32">
					<dim>-1</dim>
					<dim>-1</dim>
					<dim>320</dim>
				</port>
			</output>
		</layer>
		<layer id="255" name="Constant_78248" type="Const" version="opset1">
			<data element_type="f32" shape="1, 1, 320" offset="5574900" size="1280" />
			<output>
				<port id="0" precision="FP32">
					<dim>1</dim>
					<dim>1</dim>
					<dim>320</dim>
				</port>
			</output>
		</layer>
		<layer id="256" name="__module.down_blocks.0.attentions.0.transformer_blocks.0.norm3/aten::layer_norm/Add" type="Add" version="opset1">
			<data auto_broadcast="numpy" />
			<input>
				<port id="0" precision="FP32">
					<dim>-1</dim>
					<dim>-1</dim>
					<dim>320</dim>
				</port>
				<port id="1" precision="FP32">
					<dim>1</dim>
					<dim>1</dim>
					<dim>320</dim>
				</port>
			</input>
			<output>
				<port id="2" precision="FP32" names="343,input.41">
					<dim>-1</dim>
					<dim>-1</dim>
					<dim>320</dim>
				</port>
			</output>
		</layer>
		<layer id="257" name="self.down_blocks.0.attentions.0.transformer_blocks.0.ff.net.0.proj.weight" type="Const" version="opset1">
			<data element_type="u8" shape="2560, 320" offset="5576180" size="819200" />
			<output>
				<port id="0" precision="U8">
					<dim>2560</dim>
					<dim>320</dim>
				</port>
			</output>
		</layer>
		<layer id="258" name="Convert_1087739" type="Convert" version="opset1">
			<data destination_type="f16" />
			<input>
				<port id="0" precision="U8">
					<dim>2560</dim>
					<dim>320</dim>
				</port>
			</input>
			<output>
				<port id="1" precision="FP16">
					<dim>2560</dim>
					<dim>320</dim>
				</port>
			</output>
		</layer>
		<layer id="259" name="self.down_blocks.0.attentions.0.transformer_blocks.0.ff.net.0.proj.weight/zero_point" type="Const" version="opset1">
			<data element_type="u8" shape="2560, 1" offset="6395380" size="2560" />
			<output>
				<port id="0" precision="U8">
					<dim>2560</dim>
					<dim>1</dim>
				</port>
			</output>
		</layer>
		<layer id="260" name="Convert_1087742" type="Convert" version="opset1">
			<data destination_type="f16" />
			<input>
				<port id="0" precision="U8">
					<dim>2560</dim>
					<dim>1</dim>
				</port>
			</input>
			<output>
				<port id="1" precision="FP16">
					<dim>2560</dim>
					<dim>1</dim>
				</port>
			</output>
		</layer>
		<layer id="261" name="self.down_blocks.0.attentions.0.transformer_blocks.0.ff.net.0.proj.weight/zero_point/subtract" type="Subtract" version="opset1">
			<data auto_broadcast="numpy" />
			<input>
				<port id="0" precision="FP16">
					<dim>2560</dim>
					<dim>320</dim>
				</port>
				<port id="1" precision="FP16">
					<dim>2560</dim>
					<dim>1</dim>
				</port>
			</input>
			<output>
				<port id="2" precision="FP16">
					<dim>2560</dim>
					<dim>320</dim>
				</port>
			</output>
		</layer>
		<layer id="262" name="self.down_blocks.0.attentions.0.transformer_blocks.0.ff.net.0.proj.weight/scale" type="Const" version="opset1">
			<data element_type="f16" shape="2560, 1" offset="6397940" size="5120" />
			<output>
				<port id="0" precision="FP16">
					<dim>2560</dim>
					<dim>1</dim>
				</port>
			</output>
		</layer>
		<layer id="263" name="self.down_blocks.0.attentions.0.transformer_blocks.0.ff.net.0.proj.weight/fq_weights_1" type="Multiply" version="opset1">
			<data auto_broadcast="numpy" />
			<input>
				<port id="0" precision="FP16">
					<dim>2560</dim>
					<dim>320</dim>
				</port>
				<port id="1" precision="FP16">
					<dim>2560</dim>
					<dim>1</dim>
				</port>
			</input>
			<output>
				<port id="2" precision="FP16">
					<dim>2560</dim>
					<dim>320</dim>
				</port>
			</output>
		</layer>
		<layer id="264" name="self.down_blocks.0.attentions.0.transformer_blocks.0.ff.net.0.proj.weight/fq_weights_1/convert" type="Convert" version="opset1">
			<data destination_type="f32" />
			<input>
				<port id="0" precision="FP16">
					<dim>2560</dim>
					<dim>320</dim>
				</port>
			</input>
			<output>
				<port id="1" precision="FP32">
					<dim>2560</dim>
					<dim>320</dim>
				</port>
			</output>
		</layer>
		<layer id="265" name="__module.down_blocks.0.attentions.0.transformer_blocks.0.ff.net.0.proj/aten::linear/MatMul" type="MatMul" version="opset1">
			<data transpose_a="false" transpose_b="true" />
			<input>
				<port id="0" precision="FP32">
					<dim>-1</dim>
					<dim>-1</dim>
					<dim>320</dim>
				</port>
				<port id="1" precision="FP32">
					<dim>2560</dim>
					<dim>320</dim>
				</port>
			</input>
			<output>
				<port id="2" precision="FP32">
					<dim>-1</dim>
					<dim>-1</dim>
					<dim>2560</dim>
				</port>
			</output>
		</layer>
		<layer id="266" name="Constant_78249" type="Const" version="opset1">
			<data element_type="f32" shape="1, 1, 2560" offset="6403060" size="10240" />
			<output>
				<port id="0" precision="FP32">
					<dim>1</dim>
					<dim>1</dim>
					<dim>2560</dim>
				</port>
			</output>
		</layer>
		<layer id="267" name="__module.down_blocks.0.attentions.0.transformer_blocks.0.ff.net.0.proj/aten::linear/Add" type="Add" version="opset1">
			<data auto_broadcast="numpy" />
			<input>
				<port id="0" precision="FP32">
					<dim>-1</dim>
					<dim>-1</dim>
					<dim>2560</dim>
				</port>
				<port id="1" precision="FP32">
					<dim>1</dim>
					<dim>1</dim>
					<dim>2560</dim>
				</port>
			</input>
			<output>
				<port id="2" precision="FP32" names="351,hidden_states.25">
					<dim>-1</dim>
					<dim>-1</dim>
					<dim>2560</dim>
				</port>
			</output>
		</layer>
		<layer id="268" name="150" type="Const" version="opset1">
			<data element_type="i64" shape="" offset="6413300" size="8" />
			<output>
				<port id="0" precision="I64" names="150" />
			</output>
		</layer>
		<layer id="269" name="__module.down_blocks.0.attentions.0.transformer_blocks.0.ff.net.0/prim::ListUnpack/ShapeOf" type="ShapeOf" version="opset3">
			<data output_type="i32" />
			<input>
				<port id="0" precision="FP32">
					<dim>-1</dim>
					<dim>-1</dim>
					<dim>2560</dim>
				</port>
			</input>
			<output>
				<port id="1" precision="I32">
					<dim>3</dim>
				</port>
			</output>
		</layer>
		<layer id="270" name="Constant_44247" type="Const" version="opset1">
			<data element_type="i32" shape="1" offset="6413308" size="4" />
			<output>
				<port id="0" precision="I32">
					<dim>1</dim>
				</port>
			</output>
		</layer>
		<layer id="271" name="__module.down_blocks.0.attentions.0.transformer_blocks.0.ff.net.0/prim::ListUnpack/Gather" type="Gather" version="opset8">
			<data batch_dims="0" />
			<input>
				<port id="0" precision="I32">
					<dim>3</dim>
				</port>
				<port id="1" precision="I64" />
				<port id="2" precision="I32">
					<dim>1</dim>
				</port>
			</input>
			<output>
				<port id="3" precision="I32" />
			</output>
		</layer>
		<layer id="272" name="__module.down_blocks.0.attentions.0.transformer_blocks.0.ff.net.0/prim::ListUnpack/Convert" type="Const" version="opset1">
			<data element_type="i32" shape="" offset="6413312" size="4" />
			<output>
				<port id="0" precision="I32" />
			</output>
		</layer>
		<layer id="273" name="__module.down_blocks.0.attentions.0.transformer_blocks.0.ff.net.0/prim::ListUnpack/Divide" type="Divide" version="opset1">
			<data auto_broadcast="numpy" m_pythondiv="true" />
			<input>
				<port id="0" precision="I32" />
				<port id="1" precision="I32" />
			</input>
			<output>
				<port id="2" precision="I32" />
			</output>
		</layer>
		<layer id="274" name="__module.down_blocks.0.attentions.0.transformer_blocks.0.ff.net.0/prim::ListUnpack/Mod" type="Mod" version="opset1">
			<data auto_broadcast="numpy" />
			<input>
				<port id="0" precision="I32" />
				<port id="1" precision="I32" />
			</input>
			<output>
				<port id="2" precision="I32" />
			</output>
		</layer>
		<layer id="275" name="__module.down_blocks.0.attentions.0.transformer_blocks.0.ff.net.0/prim::ListUnpack/Greater" type="Greater" version="opset1">
			<data auto_broadcast="numpy" />
			<input>
				<port id="0" precision="I32" />
				<port id="1" precision="I32">
					<dim>1</dim>
				</port>
			</input>
			<output>
				<port id="2" precision="BOOL">
					<dim>1</dim>
				</port>
			</output>
		</layer>
		<layer id="276" name="__module.down_blocks.0.attentions.0.transformer_blocks.0.ff.net.0/prim::ListUnpack/Convert_0" type="Convert" version="opset1">
			<data destination_type="i32" />
			<input>
				<port id="0" precision="BOOL">
					<dim>1</dim>
				</port>
			</input>
			<output>
				<port id="1" precision="I32">
					<dim>1</dim>
				</port>
			</output>
		</layer>
		<layer id="277" name="__module.down_blocks.0.attentions.0.transformer_blocks.0.ff.net.0/prim::ListUnpack/Add" type="Add" version="opset1">
			<data auto_broadcast="numpy" />
			<input>
				<port id="0" precision="I32" />
				<port id="1" precision="I32">
					<dim>1</dim>
				</port>
			</input>
			<output>
				<port id="2" precision="I32">
					<dim>1</dim>
				</port>
			</output>
		</layer>
		<layer id="278" name="Constant_44248" type="Const" version="opset1">
			<data element_type="i32" shape="1" offset="4452264" size="4" />
			<output>
				<port id="0" precision="I32">
					<dim>1</dim>
				</port>
			</output>
		</layer>
		<layer id="279" name="__module.down_blocks.0.attentions.0.transformer_blocks.0.ff.net.0/prim::ListUnpack/Concat" type="Concat" version="opset1">
			<data axis="0" />
			<input>
				<port id="0" precision="I32">
					<dim>1</dim>
				</port>
				<port id="1" precision="I32">
					<dim>1</dim>
				</port>
			</input>
			<output>
				<port id="2" precision="I32">
					<dim>2</dim>
				</port>
			</output>
		</layer>
		<layer id="280" name="__module.down_blocks.0.attentions.0.transformer_blocks.0.ff.net.0/prim::ListUnpack/VariadicSplit" type="VariadicSplit" version="opset1">
			<input>
				<port id="0" precision="FP32">
					<dim>-1</dim>
					<dim>-1</dim>
					<dim>2560</dim>
				</port>
				<port id="1" precision="I64" />
				<port id="2" precision="I32">
					<dim>2</dim>
				</port>
			</input>
			<output>
				<port id="3" precision="FP32" names="353,hidden_states.27">
					<dim>-1</dim>
					<dim>-1</dim>
					<dim>1280</dim>
				</port>
				<port id="4" precision="FP32" names="354,gate.1">
					<dim>-1</dim>
					<dim>-1</dim>
					<dim>1280</dim>
				</port>
			</output>
		</layer>
		<layer id="281" name="__module.down_blocks.0.attentions.0.transformer_blocks.0.ff.net.0/aten::gelu/Gelu" type="Gelu" version="opset7">
			<data approximation_mode="ERF" />
			<input>
				<port id="0" precision="FP32">
					<dim>-1</dim>
					<dim>-1</dim>
					<dim>1280</dim>
				</port>
			</input>
			<output>
				<port id="1" precision="FP32" names="355">
					<dim>-1</dim>
					<dim>-1</dim>
					<dim>1280</dim>
				</port>
			</output>
		</layer>
		<layer id="282" name="__module.down_blocks.0.attentions.0.transformer_blocks.0.ff.net.0/aten::mul/Multiply" type="Multiply" version="opset1">
			<data auto_broadcast="numpy" />
			<input>
				<port id="0" precision="FP32">
					<dim>-1</dim>
					<dim>-1</dim>
					<dim>1280</dim>
				</port>
				<port id="1" precision="FP32">
					<dim>-1</dim>
					<dim>-1</dim>
					<dim>1280</dim>
				</port>
			</input>
			<output>
				<port id="2" precision="FP32" names="356,input.43">
					<dim>-1</dim>
					<dim>-1</dim>
					<dim>1280</dim>
				</port>
			</output>
		</layer>
		<layer id="283" name="self.down_blocks.0.attentions.0.transformer_blocks.0.ff.net.2.weight" type="Const" version="opset1">
			<data element_type="u8" shape="320, 1280" offset="6413316" size="409600" />
			<output>
				<port id="0" precision="U8">
					<dim>320</dim>
					<dim>1280</dim>
				</port>
			</output>
		</layer>
		<layer id="284" name="Convert_1203704" type="Convert" version="opset1">
			<data destination_type="f16" />
			<input>
				<port id="0" precision="U8">
					<dim>320</dim>
					<dim>1280</dim>
				</port>
			</input>
			<output>
				<port id="1" precision="FP16">
					<dim>320</dim>
					<dim>1280</dim>
				</port>
			</output>
		</layer>
		<layer id="285" name="self.down_blocks.0.attentions.0.transformer_blocks.0.ff.net.2.weight/zero_point" type="Const" version="opset1">
			<data element_type="u8" shape="320, 1" offset="6822916" size="320" />
			<output>
				<port id="0" precision="U8">
					<dim>320</dim>
					<dim>1</dim>
				</port>
			</output>
		</layer>
		<layer id="286" name="Convert_1203707" type="Convert" version="opset1">
			<data destination_type="f16" />
			<input>
				<port id="0" precision="U8">
					<dim>320</dim>
					<dim>1</dim>
				</port>
			</input>
			<output>
				<port id="1" precision="FP16">
					<dim>320</dim>
					<dim>1</dim>
				</port>
			</output>
		</layer>
		<layer id="287" name="self.down_blocks.0.attentions.0.transformer_blocks.0.ff.net.2.weight/zero_point/subtract" type="Subtract" version="opset1">
			<data auto_broadcast="numpy" />
			<input>
				<port id="0" precision="FP16">
					<dim>320</dim>
					<dim>1280</dim>
				</port>
				<port id="1" precision="FP16">
					<dim>320</dim>
					<dim>1</dim>
				</port>
			</input>
			<output>
				<port id="2" precision="FP16">
					<dim>320</dim>
					<dim>1280</dim>
				</port>
			</output>
		</layer>
		<layer id="288" name="self.down_blocks.0.attentions.0.transformer_blocks.0.ff.net.2.weight/scale" type="Const" version="opset1">
			<data element_type="f16" shape="320, 1" offset="6823236" size="640" />
			<output>
				<port id="0" precision="FP16">
					<dim>320</dim>
					<dim>1</dim>
				</port>
			</output>
		</layer>
		<layer id="289" name="self.down_blocks.0.attentions.0.transformer_blocks.0.ff.net.2.weight/fq_weights_1" type="Multiply" version="opset1">
			<data auto_broadcast="numpy" />
			<input>
				<port id="0" precision="FP16">
					<dim>320</dim>
					<dim>1280</dim>
				</port>
				<port id="1" precision="FP16">
					<dim>320</dim>
					<dim>1</dim>
				</port>
			</input>
			<output>
				<port id="2" precision="FP16">
					<dim>320</dim>
					<dim>1280</dim>
				</port>
			</output>
		</layer>
		<layer id="290" name="self.down_blocks.0.attentions.0.transformer_blocks.0.ff.net.2.weight/fq_weights_1/convert" type="Convert" version="opset1">
			<data destination_type="f32" />
			<input>
				<port id="0" precision="FP16">
					<dim>320</dim>
					<dim>1280</dim>
				</port>
			</input>
			<output>
				<port id="1" precision="FP32">
					<dim>320</dim>
					<dim>1280</dim>
				</port>
			</output>
		</layer>
		<layer id="291" name="__module.down_blocks.0.attentions.0.transformer_blocks.0.ff.net.2/aten::linear/MatMul" type="MatMul" version="opset1">
			<data transpose_a="false" transpose_b="true" />
			<input>
				<port id="0" precision="FP32">
					<dim>-1</dim>
					<dim>-1</dim>
					<dim>1280</dim>
				</port>
				<port id="1" precision="FP32">
					<dim>320</dim>
					<dim>1280</dim>
				</port>
			</input>
			<output>
				<port id="2" precision="FP32">
					<dim>-1</dim>
					<dim>-1</dim>
					<dim>320</dim>
				</port>
			</output>
		</layer>
		<layer id="292" name="Constant_78250" type="Const" version="opset1">
			<data element_type="f32" shape="1, 1, 320" offset="6823876" size="1280" />
			<output>
				<port id="0" precision="FP32">
					<dim>1</dim>
					<dim>1</dim>
					<dim>320</dim>
				</port>
			</output>
		</layer>
		<layer id="293" name="__module.down_blocks.0.attentions.0.transformer_blocks.0.ff.net.2/aten::linear/Add" type="Add" version="opset1">
			<data auto_broadcast="numpy" />
			<input>
				<port id="0" precision="FP32">
					<dim>-1</dim>
					<dim>-1</dim>
					<dim>320</dim>
				</port>
				<port id="1" precision="FP32">
					<dim>1</dim>
					<dim>1</dim>
					<dim>320</dim>
				</port>
			</input>
			<output>
				<port id="2" precision="FP32" names="360,ff_output.1">
					<dim>-1</dim>
					<dim>-1</dim>
					<dim>320</dim>
				</port>
			</output>
		</layer>
		<layer id="294" name="__module.down_blocks.0.attentions.0.transformer_blocks.0/aten::add/Add_2" type="Add" version="opset1">
			<data auto_broadcast="numpy" />
			<input>
				<port id="0" precision="FP32">
					<dim>-1</dim>
					<dim>-1</dim>
					<dim>320</dim>
				</port>
				<port id="1" precision="FP32">
					<dim>-1</dim>
					<dim>-1</dim>
					<dim>320</dim>
				</port>
			</input>
			<output>
				<port id="2" precision="FP32" names="361,hidden_states.29">
					<dim>-1</dim>
					<dim>-1</dim>
					<dim>320</dim>
				</port>
			</output>
		</layer>
		<layer id="295" name="__module.down_blocks.0.attentions.0/aten::size/ShapeOf" type="ShapeOf" version="opset3">
			<data output_type="i64" />
			<input>
				<port id="0" precision="FP32">
					<dim>-1</dim>
					<dim>320</dim>
					<dim>-1</dim>
					<dim>-1</dim>
				</port>
			</input>
			<output>
				<port id="1" precision="I64">
					<dim>4</dim>
				</port>
			</output>
		</layer>
		<layer id="296" name="Constant_68537" type="Const" version="opset1">
			<data element_type="i64" shape="3" offset="6825156" size="24" />
			<output>
				<port id="0" precision="I64">
					<dim>3</dim>
				</port>
			</output>
		</layer>
		<layer id="297" name="Constant_68538" type="Const" version="opset1">
			<data element_type="i64" shape="" offset="940160" size="8" />
			<output>
				<port id="0" precision="I64" />
			</output>
		</layer>
		<layer id="298" name="Gather_68539" type="Gather" version="opset8">
			<data batch_dims="0" />
			<input>
				<port id="0" precision="I64">
					<dim>4</dim>
				</port>
				<port id="1" precision="I64">
					<dim>3</dim>
				</port>
				<port id="2" precision="I64" />
			</input>
			<output>
				<port id="3" precision="I64">
					<dim>3</dim>
				</port>
			</output>
		</layer>
		<layer id="299" name="Constant_18986" type="Const" version="opset1">
			<data element_type="i64" shape="1" offset="6825180" size="8" />
			<output>
				<port id="0" precision="I64">
					<dim>1</dim>
				</port>
			</output>
		</layer>
		<layer id="300" name="__module.down_blocks.0.attentions.0/prim::ListConstruct_1" type="Concat" version="opset1">
			<data axis="0" />
			<input>
				<port id="0" precision="I64">
					<dim>3</dim>
				</port>
				<port id="1" precision="I64">
					<dim>1</dim>
				</port>
			</input>
			<output>
				<port id="2" precision="I64">
					<dim>4</dim>
				</port>
			</output>
		</layer>
		<layer id="301" name="__module.down_blocks.0.attentions.0/aten::reshape/Reshape_1" type="Reshape" version="opset1">
			<data special_zero="false" />
			<input>
				<port id="0" precision="FP32">
					<dim>-1</dim>
					<dim>-1</dim>
					<dim>320</dim>
				</port>
				<port id="1" precision="I64">
					<dim>4</dim>
				</port>
			</input>
			<output>
				<port id="2" precision="FP32" names="363">
					<dim>-1</dim>
					<dim>-1</dim>
					<dim>-1</dim>
					<dim>320</dim>
				</port>
			</output>
		</layer>
		<layer id="302" name="Constant_18995" type="Const" version="opset1">
			<data element_type="i64" shape="4" offset="6825188" size="32" />
			<output>
				<port id="0" precision="I64" names="364">
					<dim>4</dim>
				</port>
			</output>
		</layer>
		<layer id="303" name="__module.down_blocks.0.attentions.0/aten::permute/Transpose_1" type="Transpose" version="opset1">
			<input>
				<port id="0" precision="FP32">
					<dim>-1</dim>
					<dim>-1</dim>
					<dim>-1</dim>
					<dim>320</dim>
				</port>
				<port id="1" precision="I64">
					<dim>4</dim>
				</port>
			</input>
			<output>
				<port id="2" precision="FP32" names="365">
					<dim>-1</dim>
					<dim>320</dim>
					<dim>-1</dim>
					<dim>-1</dim>
				</port>
			</output>
		</layer>
		<layer id="304" name="self.down_blocks.0.attentions.0.proj_out.weight" type="Const" version="opset1">
			<data element_type="u8" shape="320, 320, 1, 1" offset="6825220" size="102400" />
			<output>
				<port id="0" precision="U8">
					<dim>320</dim>
					<dim>320</dim>
					<dim>1</dim>
					<dim>1</dim>
				</port>
			</output>
		</layer>
		<layer id="305" name="Convert_1495764" type="Convert" version="opset1">
			<data destination_type="f16" />
			<input>
				<port id="0" precision="U8">
					<dim>320</dim>
					<dim>320</dim>
					<dim>1</dim>
					<dim>1</dim>
				</port>
			</input>
			<output>
				<port id="1" precision="FP16">
					<dim>320</dim>
					<dim>320</dim>
					<dim>1</dim>
					<dim>1</dim>
				</port>
			</output>
		</layer>
		<layer id="306" name="self.down_blocks.0.attentions.0.proj_out.weight/zero_point" type="Const" version="opset1">
			<data element_type="u8" shape="320, 1, 1, 1" offset="6927620" size="320" />
			<output>
				<port id="0" precision="U8">
					<dim>320</dim>
					<dim>1</dim>
					<dim>1</dim>
					<dim>1</dim>
				</port>
			</output>
		</layer>
		<layer id="307" name="Convert_1495767" type="Convert" version="opset1">
			<data destination_type="f16" />
			<input>
				<port id="0" precision="U8">
					<dim>320</dim>
					<dim>1</dim>
					<dim>1</dim>
					<dim>1</dim>
				</port>
			</input>
			<output>
				<port id="1" precision="FP16">
					<dim>320</dim>
					<dim>1</dim>
					<dim>1</dim>
					<dim>1</dim>
				</port>
			</output>
		</layer>
		<layer id="308" name="self.down_blocks.0.attentions.0.proj_out.weight/zero_point/subtract" type="Subtract" version="opset1">
			<data auto_broadcast="numpy" />
			<input>
				<port id="0" precision="FP16">
					<dim>320</dim>
					<dim>320</dim>
					<dim>1</dim>
					<dim>1</dim>
				</port>
				<port id="1" precision="FP16">
					<dim>320</dim>
					<dim>1</dim>
					<dim>1</dim>
					<dim>1</dim>
				</port>
			</input>
			<output>
				<port id="2" precision="FP16">
					<dim>320</dim>
					<dim>320</dim>
					<dim>1</dim>
					<dim>1</dim>
				</port>
			</output>
		</layer>
		<layer id="309" name="self.down_blocks.0.attentions.0.proj_out.weight/scale" type="Const" version="opset1">
			<data element_type="f16" shape="320, 1, 1, 1" offset="6927940" size="640" />
			<output>
				<port id="0" precision="FP16">
					<dim>320</dim>
					<dim>1</dim>
					<dim>1</dim>
					<dim>1</dim>
				</port>
			</output>
		</layer>
		<layer id="310" name="self.down_blocks.0.attentions.0.proj_out.weight/fq_weights_1" type="Multiply" version="opset1">
			<data auto_broadcast="numpy" />
			<input>
				<port id="0" precision="FP16">
					<dim>320</dim>
					<dim>320</dim>
					<dim>1</dim>
					<dim>1</dim>
				</port>
				<port id="1" precision="FP16">
					<dim>320</dim>
					<dim>1</dim>
					<dim>1</dim>
					<dim>1</dim>
				</port>
			</input>
			<output>
				<port id="2" precision="FP16">
					<dim>320</dim>
					<dim>320</dim>
					<dim>1</dim>
					<dim>1</dim>
				</port>
			</output>
		</layer>
		<layer id="311" name="self.down_blocks.0.attentions.0.proj_out.weight/fq_weights_1/convert" type="Convert" version="opset1">
			<data destination_type="f32" />
			<input>
				<port id="0" precision="FP16">
					<dim>320</dim>
					<dim>320</dim>
					<dim>1</dim>
					<dim>1</dim>
				</port>
			</input>
			<output>
				<port id="1" precision="FP32">
					<dim>320</dim>
					<dim>320</dim>
					<dim>1</dim>
					<dim>1</dim>
				</port>
			</output>
		</layer>
		<layer id="312" name="__module.down_blocks.0.attentions.0.proj_out/aten::_convolution/Convolution" type="Convolution" version="opset1">
			<data strides="1, 1" dilations="1, 1" pads_begin="0, 0" pads_end="0, 0" auto_pad="explicit" />
			<input>
				<port id="0" precision="FP32">
					<dim>-1</dim>
					<dim>320</dim>
					<dim>-1</dim>
					<dim>-1</dim>
				</port>
				<port id="1" precision="FP32">
					<dim>320</dim>
					<dim>320</dim>
					<dim>1</dim>
					<dim>1</dim>
				</port>
			</input>
			<output>
				<port id="2" precision="FP32">
					<dim>-1</dim>
					<dim>320</dim>
					<dim>-1</dim>
					<dim>-1</dim>
				</port>
			</output>
		</layer>
		<layer id="313" name="__module.down_blocks.0.attentions.0.proj_out/aten::_convolution/Reshape" type="Const" version="opset1">
			<data element_type="f32" shape="1, 320, 1, 1" offset="6928580" size="1280" />
			<output>
				<port id="0" precision="FP32">
					<dim>1</dim>
					<dim>320</dim>
					<dim>1</dim>
					<dim>1</dim>
				</port>
			</output>
		</layer>
		<layer id="314" name="__module.down_blocks.0.attentions.0.proj_out/aten::_convolution/Add" type="Add" version="opset1">
			<data auto_broadcast="numpy" />
			<input>
				<port id="0" precision="FP32">
					<dim>-1</dim>
					<dim>320</dim>
					<dim>-1</dim>
					<dim>-1</dim>
				</port>
				<port id="1" precision="FP32">
					<dim>1</dim>
					<dim>320</dim>
					<dim>1</dim>
					<dim>1</dim>
				</port>
			</input>
			<output>
				<port id="2" precision="FP32" names="373,hidden_states.31">
					<dim>-1</dim>
					<dim>320</dim>
					<dim>-1</dim>
					<dim>-1</dim>
				</port>
			</output>
		</layer>
		<layer id="315" name="__module.down_blocks.0.attentions.0/aten::add/Add" type="Add" version="opset1">
			<data auto_broadcast="numpy" />
			<input>
				<port id="0" precision="FP32">
					<dim>-1</dim>
					<dim>320</dim>
					<dim>-1</dim>
					<dim>-1</dim>
				</port>
				<port id="1" precision="FP32">
					<dim>-1</dim>
					<dim>320</dim>
					<dim>-1</dim>
					<dim>-1</dim>
				</port>
			</input>
			<output>
				<port id="2" precision="FP32" names="374,45,input.49">
					<dim>-1</dim>
					<dim>320</dim>
					<dim>-1</dim>
					<dim>-1</dim>
				</port>
			</output>
		</layer>
		<layer id="316" name="self.down_blocks.0.resnets.1.norm1.weight" type="Const" version="opset1">
			<data element_type="f32" shape="320" offset="6929860" size="1280" />
			<output>
				<port id="0" precision="FP32" names="self.down_blocks.0.resnets.1.norm1.weight">
					<dim>320</dim>
				</port>
			</output>
		</layer>
		<layer id="317" name="self.down_blocks.0.resnets.1.norm1.bias" type="Const" version="opset1">
			<data element_type="f32" shape="320" offset="6931140" size="1280" />
			<output>
				<port id="0" precision="FP32" names="self.down_blocks.0.resnets.1.norm1.bias">
					<dim>320</dim>
				</port>
			</output>
		</layer>
		<layer id="318" name="__module.down_blocks.0.resnets.1.norm1/aten::group_norm/GroupNormalization" type="GroupNormalization" version="opset12">
			<data num_groups="32" epsilon="9.9999997473787516e-06" />
			<input>
				<port id="0" precision="FP32">
					<dim>-1</dim>
					<dim>320</dim>
					<dim>-1</dim>
					<dim>-1</dim>
				</port>
				<port id="1" precision="FP32">
					<dim>320</dim>
				</port>
				<port id="2" precision="FP32">
					<dim>320</dim>
				</port>
			</input>
			<output>
				<port id="3" precision="FP32" names="384,input.51">
					<dim>-1</dim>
					<dim>320</dim>
					<dim>-1</dim>
					<dim>-1</dim>
				</port>
			</output>
		</layer>
		<layer id="319" name="__module.down_blocks.0.resnets.1.nonlinearity/aten::silu/Swish" type="Swish" version="opset4">
			<input>
				<port id="0" precision="FP32">
					<dim>-1</dim>
					<dim>320</dim>
					<dim>-1</dim>
					<dim>-1</dim>
				</port>
			</input>
			<output>
				<port id="1" precision="FP32" names="385,input.53">
					<dim>-1</dim>
					<dim>320</dim>
					<dim>-1</dim>
					<dim>-1</dim>
				</port>
			</output>
		</layer>
		<layer id="320" name="self.down_blocks.0.resnets.1.conv1.weight" type="Const" version="opset1">
			<data element_type="u8" shape="320, 320, 3, 3" offset="6932420" size="921600" />
			<output>
				<port id="0" precision="U8">
					<dim>320</dim>
					<dim>320</dim>
					<dim>3</dim>
					<dim>3</dim>
				</port>
			</output>
		</layer>
		<layer id="321" name="Convert_1061969" type="Convert" version="opset1">
			<data destination_type="f16" />
			<input>
				<port id="0" precision="U8">
					<dim>320</dim>
					<dim>320</dim>
					<dim>3</dim>
					<dim>3</dim>
				</port>
			</input>
			<output>
				<port id="1" precision="FP16">
					<dim>320</dim>
					<dim>320</dim>
					<dim>3</dim>
					<dim>3</dim>
				</port>
			</output>
		</layer>
		<layer id="322" name="self.down_blocks.0.resnets.1.conv1.weight/zero_point" type="Const" version="opset1">
			<data element_type="u8" shape="320, 1, 1, 1" offset="7854020" size="320" />
			<output>
				<port id="0" precision="U8">
					<dim>320</dim>
					<dim>1</dim>
					<dim>1</dim>
					<dim>1</dim>
				</port>
			</output>
		</layer>
		<layer id="323" name="Convert_1061972" type="Convert" version="opset1">
			<data destination_type="f16" />
			<input>
				<port id="0" precision="U8">
					<dim>320</dim>
					<dim>1</dim>
					<dim>1</dim>
					<dim>1</dim>
				</port>
			</input>
			<output>
				<port id="1" precision="FP16">
					<dim>320</dim>
					<dim>1</dim>
					<dim>1</dim>
					<dim>1</dim>
				</port>
			</output>
		</layer>
		<layer id="324" name="self.down_blocks.0.resnets.1.conv1.weight/zero_point/subtract" type="Subtract" version="opset1">
			<data auto_broadcast="numpy" />
			<input>
				<port id="0" precision="FP16">
					<dim>320</dim>
					<dim>320</dim>
					<dim>3</dim>
					<dim>3</dim>
				</port>
				<port id="1" precision="FP16">
					<dim>320</dim>
					<dim>1</dim>
					<dim>1</dim>
					<dim>1</dim>
				</port>
			</input>
			<output>
				<port id="2" precision="FP16">
					<dim>320</dim>
					<dim>320</dim>
					<dim>3</dim>
					<dim>3</dim>
				</port>
			</output>
		</layer>
		<layer id="325" name="self.down_blocks.0.resnets.1.conv1.weight/scale" type="Const" version="opset1">
			<data element_type="f16" shape="320, 1, 1, 1" offset="7854340" size="640" />
			<output>
				<port id="0" precision="FP16">
					<dim>320</dim>
					<dim>1</dim>
					<dim>1</dim>
					<dim>1</dim>
				</port>
			</output>
		</layer>
		<layer id="326" name="self.down_blocks.0.resnets.1.conv1.weight/fq_weights_1" type="Multiply" version="opset1">
			<data auto_broadcast="numpy" />
			<input>
				<port id="0" precision="FP16">
					<dim>320</dim>
					<dim>320</dim>
					<dim>3</dim>
					<dim>3</dim>
				</port>
				<port id="1" precision="FP16">
					<dim>320</dim>
					<dim>1</dim>
					<dim>1</dim>
					<dim>1</dim>
				</port>
			</input>
			<output>
				<port id="2" precision="FP16">
					<dim>320</dim>
					<dim>320</dim>
					<dim>3</dim>
					<dim>3</dim>
				</port>
			</output>
		</layer>
		<layer id="327" name="self.down_blocks.0.resnets.1.conv1.weight/fq_weights_1/convert" type="Convert" version="opset1">
			<data destination_type="f32" />
			<input>
				<port id="0" precision="FP16">
					<dim>320</dim>
					<dim>320</dim>
					<dim>3</dim>
					<dim>3</dim>
				</port>
			</input>
			<output>
				<port id="1" precision="FP32">
					<dim>320</dim>
					<dim>320</dim>
					<dim>3</dim>
					<dim>3</dim>
				</port>
			</output>
		</layer>
		<layer id="328" name="__module.down_blocks.0.resnets.1.conv1/aten::_convolution/Convolution" type="Convolution" version="opset1">
			<data strides="1, 1" dilations="1, 1" pads_begin="1, 1" pads_end="1, 1" auto_pad="explicit" />
			<input>
				<port id="0" precision="FP32">
					<dim>-1</dim>
					<dim>320</dim>
					<dim>-1</dim>
					<dim>-1</dim>
				</port>
				<port id="1" precision="FP32">
					<dim>320</dim>
					<dim>320</dim>
					<dim>3</dim>
					<dim>3</dim>
				</port>
			</input>
			<output>
				<port id="2" precision="FP32">
					<dim>-1</dim>
					<dim>320</dim>
					<dim>-1</dim>
					<dim>-1</dim>
				</port>
			</output>
		</layer>
		<layer id="329" name="__module.down_blocks.0.resnets.1.conv1/aten::_convolution/Reshape" type="Const" version="opset1">
			<data element_type="f32" shape="1, 320, 1, 1" offset="7854980" size="1280" />
			<output>
				<port id="0" precision="FP32">
					<dim>1</dim>
					<dim>320</dim>
					<dim>1</dim>
					<dim>1</dim>
				</port>
			</output>
		</layer>
		<layer id="330" name="__module.down_blocks.0.resnets.1.conv1/aten::_convolution/Add" type="Add" version="opset1">
			<data auto_broadcast="numpy" />
			<input>
				<port id="0" precision="FP32">
					<dim>-1</dim>
					<dim>320</dim>
					<dim>-1</dim>
					<dim>-1</dim>
				</port>
				<port id="1" precision="FP32">
					<dim>1</dim>
					<dim>320</dim>
					<dim>1</dim>
					<dim>1</dim>
				</port>
			</input>
			<output>
				<port id="2" precision="FP32" names="392,hidden_states.33">
					<dim>-1</dim>
					<dim>320</dim>
					<dim>-1</dim>
					<dim>-1</dim>
				</port>
			</output>
		</layer>
		<layer id="331" name="self.down_blocks.0.resnets.1.time_emb_proj.weight" type="Const" version="opset1">
			<data element_type="u8" shape="320, 1280" offset="7856260" size="409600" />
			<output>
				<port id="0" precision="U8">
					<dim>320</dim>
					<dim>1280</dim>
				</port>
			</output>
		</layer>
		<layer id="332" name="Convert_1212294" type="Convert" version="opset1">
			<data destination_type="f16" />
			<input>
				<port id="0" precision="U8">
					<dim>320</dim>
					<dim>1280</dim>
				</port>
			</input>
			<output>
				<port id="1" precision="FP16">
					<dim>320</dim>
					<dim>1280</dim>
				</port>
			</output>
		</layer>
		<layer id="333" name="self.down_blocks.0.resnets.1.time_emb_proj.weight/zero_point" type="Const" version="opset1">
			<data element_type="u8" shape="320, 1" offset="8265860" size="320" />
			<output>
				<port id="0" precision="U8">
					<dim>320</dim>
					<dim>1</dim>
				</port>
			</output>
		</layer>
		<layer id="334" name="Convert_1212297" type="Convert" version="opset1">
			<data destination_type="f16" />
			<input>
				<port id="0" precision="U8">
					<dim>320</dim>
					<dim>1</dim>
				</port>
			</input>
			<output>
				<port id="1" precision="FP16">
					<dim>320</dim>
					<dim>1</dim>
				</port>
			</output>
		</layer>
		<layer id="335" name="self.down_blocks.0.resnets.1.time_emb_proj.weight/zero_point/subtract" type="Subtract" version="opset1">
			<data auto_broadcast="numpy" />
			<input>
				<port id="0" precision="FP16">
					<dim>320</dim>
					<dim>1280</dim>
				</port>
				<port id="1" precision="FP16">
					<dim>320</dim>
					<dim>1</dim>
				</port>
			</input>
			<output>
				<port id="2" precision="FP16">
					<dim>320</dim>
					<dim>1280</dim>
				</port>
			</output>
		</layer>
		<layer id="336" name="self.down_blocks.0.resnets.1.time_emb_proj.weight/scale" type="Const" version="opset1">
			<data element_type="f16" shape="320, 1" offset="8266180" size="640" />
			<output>
				<port id="0" precision="FP16">
					<dim>320</dim>
					<dim>1</dim>
				</port>
			</output>
		</layer>
		<layer id="337" name="self.down_blocks.0.resnets.1.time_emb_proj.weight/fq_weights_1" type="Multiply" version="opset1">
			<data auto_broadcast="numpy" />
			<input>
				<port id="0" precision="FP16">
					<dim>320</dim>
					<dim>1280</dim>
				</port>
				<port id="1" precision="FP16">
					<dim>320</dim>
					<dim>1</dim>
				</port>
			</input>
			<output>
				<port id="2" precision="FP16">
					<dim>320</dim>
					<dim>1280</dim>
				</port>
			</output>
		</layer>
		<layer id="338" name="self.down_blocks.0.resnets.1.time_emb_proj.weight/fq_weights_1/convert" type="Convert" version="opset1">
			<data destination_type="f32" />
			<input>
				<port id="0" precision="FP16">
					<dim>320</dim>
					<dim>1280</dim>
				</port>
			</input>
			<output>
				<port id="1" precision="FP32">
					<dim>320</dim>
					<dim>1280</dim>
				</port>
			</output>
		</layer>
		<layer id="339" name="__module.down_blocks.0.resnets.1.time_emb_proj/aten::linear/MatMul" type="MatMul" version="opset1">
			<data transpose_a="false" transpose_b="true" />
			<input>
				<port id="0" precision="FP32">
					<dim>-1</dim>
					<dim>1280</dim>
				</port>
				<port id="1" precision="FP32">
					<dim>320</dim>
					<dim>1280</dim>
				</port>
			</input>
			<output>
				<port id="2" precision="FP32">
					<dim>-1</dim>
					<dim>320</dim>
				</port>
			</output>
		</layer>
		<layer id="340" name="Constant_78251" type="Const" version="opset1">
			<data element_type="f32" shape="1, 320" offset="8266820" size="1280" />
			<output>
				<port id="0" precision="FP32">
					<dim>1</dim>
					<dim>320</dim>
				</port>
			</output>
		</layer>
		<layer id="341" name="__module.down_blocks.0.resnets.1.time_emb_proj/aten::linear/Add" type="Add" version="opset1">
			<data auto_broadcast="numpy" />
			<input>
				<port id="0" precision="FP32">
					<dim>-1</dim>
					<dim>320</dim>
				</port>
				<port id="1" precision="FP32">
					<dim>1</dim>
					<dim>320</dim>
				</port>
			</input>
			<output>
				<port id="2" precision="FP32" names="396,397,398">
					<dim>-1</dim>
					<dim>320</dim>
				</port>
			</output>
		</layer>
		<layer id="342" name="__module.down_blocks.0.resnets.1/aten::unsqueeze/Unsqueeze" type="Unsqueeze" version="opset1">
			<input>
				<port id="0" precision="FP32">
					<dim>-1</dim>
					<dim>320</dim>
				</port>
				<port id="1" precision="I64" />
			</input>
			<output>
				<port id="2" precision="FP32" names="399">
					<dim>-1</dim>
					<dim>320</dim>
					<dim>1</dim>
				</port>
			</output>
		</layer>
		<layer id="343" name="__module.down_blocks.0.resnets.1/aten::unsqueeze/Unsqueeze_1" type="Unsqueeze" version="opset1">
			<input>
				<port id="0" precision="FP32">
					<dim>-1</dim>
					<dim>320</dim>
					<dim>1</dim>
				</port>
				<port id="1" precision="I64" />
			</input>
			<output>
				<port id="2" precision="FP32" names="400,temb.3">
					<dim>-1</dim>
					<dim>320</dim>
					<dim>1</dim>
					<dim>1</dim>
				</port>
			</output>
		</layer>
		<layer id="344" name="__module.down_blocks.0.resnets.1/aten::add/Add" type="Add" version="opset1">
			<data auto_broadcast="numpy" />
			<input>
				<port id="0" precision="FP32">
					<dim>-1</dim>
					<dim>320</dim>
					<dim>-1</dim>
					<dim>-1</dim>
				</port>
				<port id="1" precision="FP32">
					<dim>-1</dim>
					<dim>320</dim>
					<dim>1</dim>
					<dim>1</dim>
				</port>
			</input>
			<output>
				<port id="2" precision="FP32" names="401,input.57">
					<dim>-1</dim>
					<dim>320</dim>
					<dim>-1</dim>
					<dim>-1</dim>
				</port>
			</output>
		</layer>
		<layer id="345" name="self.down_blocks.0.resnets.1.norm2.weight" type="Const" version="opset1">
			<data element_type="f32" shape="320" offset="8268100" size="1280" />
			<output>
				<port id="0" precision="FP32" names="self.down_blocks.0.resnets.1.norm2.weight">
					<dim>320</dim>
				</port>
			</output>
		</layer>
		<layer id="346" name="self.down_blocks.0.resnets.1.norm2.bias" type="Const" version="opset1">
			<data element_type="f32" shape="320" offset="8269380" size="1280" />
			<output>
				<port id="0" precision="FP32" names="self.down_blocks.0.resnets.1.norm2.bias">
					<dim>320</dim>
				</port>
			</output>
		</layer>
		<layer id="347" name="__module.down_blocks.0.resnets.1.norm2/aten::group_norm/GroupNormalization" type="GroupNormalization" version="opset12">
			<data num_groups="32" epsilon="9.9999997473787516e-06" />
			<input>
				<port id="0" precision="FP32">
					<dim>-1</dim>
					<dim>320</dim>
					<dim>-1</dim>
					<dim>-1</dim>
				</port>
				<port id="1" precision="FP32">
					<dim>320</dim>
				</port>
				<port id="2" precision="FP32">
					<dim>320</dim>
				</port>
			</input>
			<output>
				<port id="3" precision="FP32" names="404,input.59">
					<dim>-1</dim>
					<dim>320</dim>
					<dim>-1</dim>
					<dim>-1</dim>
				</port>
			</output>
		</layer>
		<layer id="348" name="__module.down_blocks.0.resnets.1.nonlinearity/aten::silu/Swish_2" type="Swish" version="opset4">
			<input>
				<port id="0" precision="FP32">
					<dim>-1</dim>
					<dim>320</dim>
					<dim>-1</dim>
					<dim>-1</dim>
				</port>
			</input>
			<output>
				<port id="1" precision="FP32" names="405,input.61">
					<dim>-1</dim>
					<dim>320</dim>
					<dim>-1</dim>
					<dim>-1</dim>
				</port>
			</output>
		</layer>
		<layer id="349" name="self.down_blocks.0.resnets.1.conv2.weight" type="Const" version="opset1">
			<data element_type="u8" shape="320, 320, 3, 3" offset="8270660" size="921600" />
			<output>
				<port id="0" precision="U8">
					<dim>320</dim>
					<dim>320</dim>
					<dim>3</dim>
					<dim>3</dim>
				</port>
			</output>
		</layer>
		<layer id="350" name="Convert_1066264" type="Convert" version="opset1">
			<data destination_type="f16" />
			<input>
				<port id="0" precision="U8">
					<dim>320</dim>
					<dim>320</dim>
					<dim>3</dim>
					<dim>3</dim>
				</port>
			</input>
			<output>
				<port id="1" precision="FP16">
					<dim>320</dim>
					<dim>320</dim>
					<dim>3</dim>
					<dim>3</dim>
				</port>
			</output>
		</layer>
		<layer id="351" name="self.down_blocks.0.resnets.1.conv2.weight/zero_point" type="Const" version="opset1">
			<data element_type="u8" shape="320, 1, 1, 1" offset="9192260" size="320" />
			<output>
				<port id="0" precision="U8">
					<dim>320</dim>
					<dim>1</dim>
					<dim>1</dim>
					<dim>1</dim>
				</port>
			</output>
		</layer>
		<layer id="352" name="Convert_1066267" type="Convert" version="opset1">
			<data destination_type="f16" />
			<input>
				<port id="0" precision="U8">
					<dim>320</dim>
					<dim>1</dim>
					<dim>1</dim>
					<dim>1</dim>
				</port>
			</input>
			<output>
				<port id="1" precision="FP16">
					<dim>320</dim>
					<dim>1</dim>
					<dim>1</dim>
					<dim>1</dim>
				</port>
			</output>
		</layer>
		<layer id="353" name="self.down_blocks.0.resnets.1.conv2.weight/zero_point/subtract" type="Subtract" version="opset1">
			<data auto_broadcast="numpy" />
			<input>
				<port id="0" precision="FP16">
					<dim>320</dim>
					<dim>320</dim>
					<dim>3</dim>
					<dim>3</dim>
				</port>
				<port id="1" precision="FP16">
					<dim>320</dim>
					<dim>1</dim>
					<dim>1</dim>
					<dim>1</dim>
				</port>
			</input>
			<output>
				<port id="2" precision="FP16">
					<dim>320</dim>
					<dim>320</dim>
					<dim>3</dim>
					<dim>3</dim>
				</port>
			</output>
		</layer>
		<layer id="354" name="self.down_blocks.0.resnets.1.conv2.weight/scale" type="Const" version="opset1">
			<data element_type="f16" shape="320, 1, 1, 1" offset="9192580" size="640" />
			<output>
				<port id="0" precision="FP16">
					<dim>320</dim>
					<dim>1</dim>
					<dim>1</dim>
					<dim>1</dim>
				</port>
			</output>
		</layer>
		<layer id="355" name="self.down_blocks.0.resnets.1.conv2.weight/fq_weights_1" type="Multiply" version="opset1">
			<data auto_broadcast="numpy" />
			<input>
				<port id="0" precision="FP16">
					<dim>320</dim>
					<dim>320</dim>
					<dim>3</dim>
					<dim>3</dim>
				</port>
				<port id="1" precision="FP16">
					<dim>320</dim>
					<dim>1</dim>
					<dim>1</dim>
					<dim>1</dim>
				</port>
			</input>
			<output>
				<port id="2" precision="FP16">
					<dim>320</dim>
					<dim>320</dim>
					<dim>3</dim>
					<dim>3</dim>
				</port>
			</output>
		</layer>
		<layer id="356" name="self.down_blocks.0.resnets.1.conv2.weight/fq_weights_1/convert" type="Convert" version="opset1">
			<data destination_type="f32" />
			<input>
				<port id="0" precision="FP16">
					<dim>320</dim>
					<dim>320</dim>
					<dim>3</dim>
					<dim>3</dim>
				</port>
			</input>
			<output>
				<port id="1" precision="FP32">
					<dim>320</dim>
					<dim>320</dim>
					<dim>3</dim>
					<dim>3</dim>
				</port>
			</output>
		</layer>
		<layer id="357" name="__module.down_blocks.0.resnets.1.conv2/aten::_convolution/Convolution" type="Convolution" version="opset1">
			<data strides="1, 1" dilations="1, 1" pads_begin="1, 1" pads_end="1, 1" auto_pad="explicit" />
			<input>
				<port id="0" precision="FP32">
					<dim>-1</dim>
					<dim>320</dim>
					<dim>-1</dim>
					<dim>-1</dim>
				</port>
				<port id="1" precision="FP32">
					<dim>320</dim>
					<dim>320</dim>
					<dim>3</dim>
					<dim>3</dim>
				</port>
			</input>
			<output>
				<port id="2" precision="FP32">
					<dim>-1</dim>
					<dim>320</dim>
					<dim>-1</dim>
					<dim>-1</dim>
				</port>
			</output>
		</layer>
		<layer id="358" name="__module.down_blocks.0.resnets.1.conv2/aten::_convolution/Reshape" type="Const" version="opset1">
			<data element_type="f32" shape="1, 320, 1, 1" offset="9193220" size="1280" />
			<output>
				<port id="0" precision="FP32">
					<dim>1</dim>
					<dim>320</dim>
					<dim>1</dim>
					<dim>1</dim>
				</port>
			</output>
		</layer>
		<layer id="359" name="__module.down_blocks.0.resnets.1.conv2/aten::_convolution/Add" type="Add" version="opset1">
			<data auto_broadcast="numpy" />
			<input>
				<port id="0" precision="FP32">
					<dim>-1</dim>
					<dim>320</dim>
					<dim>-1</dim>
					<dim>-1</dim>
				</port>
				<port id="1" precision="FP32">
					<dim>1</dim>
					<dim>320</dim>
					<dim>1</dim>
					<dim>1</dim>
				</port>
			</input>
			<output>
				<port id="2" precision="FP32" names="413,hidden_states.35">
					<dim>-1</dim>
					<dim>320</dim>
					<dim>-1</dim>
					<dim>-1</dim>
				</port>
			</output>
		</layer>
		<layer id="360" name="__module.down_blocks.0.resnets.1/aten::add/Add_1" type="Add" version="opset1">
			<data auto_broadcast="numpy" />
			<input>
				<port id="0" precision="FP32">
					<dim>-1</dim>
					<dim>320</dim>
					<dim>-1</dim>
					<dim>-1</dim>
				</port>
				<port id="1" precision="FP32">
					<dim>-1</dim>
					<dim>320</dim>
					<dim>-1</dim>
…
		<edge from-layer="3992" from-port="1" to-layer="3993" to-port="1" />
		<edge from-layer="3993" from-port="2" to-layer="3995" to-port="0" />
		<edge from-layer="3994" from-port="0" to-layer="3995" to-port="1" />
		<edge from-layer="3995" from-port="2" to-layer="3997" to-port="0" />
		<edge from-layer="3996" from-port="0" to-layer="3997" to-port="1" />
		<edge from-layer="3997" from-port="2" to-layer="4011" to-port="1" />
		<edge from-layer="3998" from-port="0" to-layer="3999" to-port="0" />
		<edge from-layer="3999" from-port="1" to-layer="4002" to-port="0" />
		<edge from-layer="4000" from-port="0" to-layer="4001" to-port="0" />
		<edge from-layer="4001" from-port="1" to-layer="4002" to-port="1" />
		<edge from-layer="4002" from-port="2" to-layer="4004" to-port="0" />
		<edge from-layer="4003" from-port="0" to-layer="4004" to-port="1" />
		<edge from-layer="4004" from-port="2" to-layer="4005" to-port="0" />
		<edge from-layer="4005" from-port="1" to-layer="4006" to-port="1" />
		<edge from-layer="4006" from-port="2" to-layer="4008" to-port="0" />
		<edge from-layer="4007" from-port="0" to-layer="4008" to-port="1" />
		<edge from-layer="4008" from-port="2" to-layer="4010" to-port="0" />
		<edge from-layer="4009" from-port="0" to-layer="4010" to-port="1" />
		<edge from-layer="4010" from-port="2" to-layer="4011" to-port="2" />
		<edge from-layer="4011" from-port="3" to-layer="4013" to-port="0" />
		<edge from-layer="4012" from-port="0" to-layer="4013" to-port="1" />
		<edge from-layer="4013" from-port="2" to-layer="4015" to-port="0" />
		<edge from-layer="4014" from-port="0" to-layer="4015" to-port="1" />
		<edge from-layer="4015" from-port="2" to-layer="4024" to-port="0" />
		<edge from-layer="4016" from-port="0" to-layer="4017" to-port="0" />
		<edge from-layer="4017" from-port="1" to-layer="4020" to-port="0" />
		<edge from-layer="4018" from-port="0" to-layer="4019" to-port="0" />
		<edge from-layer="4019" from-port="1" to-layer="4020" to-port="1" />
		<edge from-layer="4020" from-port="2" to-layer="4022" to-port="0" />
		<edge from-layer="4021" from-port="0" to-layer="4022" to-port="1" />
		<edge from-layer="4022" from-port="2" to-layer="4023" to-port="0" />
		<edge from-layer="4023" from-port="1" to-layer="4024" to-port="1" />
		<edge from-layer="4024" from-port="2" to-layer="4026" to-port="0" />
		<edge from-layer="4025" from-port="0" to-layer="4026" to-port="1" />
		<edge from-layer="4026" from-port="2" to-layer="4027" to-port="0" />
		<edge from-layer="4027" from-port="2" to-layer="4071" to-port="1" />
		<edge from-layer="4027" from-port="2" to-layer="4029" to-port="0" />
		<edge from-layer="4028" from-port="0" to-layer="4029" to-port="1" />
		<edge from-layer="4029" from-port="2" to-layer="4031" to-port="0" />
		<edge from-layer="4030" from-port="0" to-layer="4031" to-port="1" />
		<edge from-layer="4031" from-port="2" to-layer="4033" to-port="0" />
		<edge from-layer="4032" from-port="0" to-layer="4033" to-port="1" />
		<edge from-layer="4033" from-port="2" to-layer="4042" to-port="0" />
		<edge from-layer="4034" from-port="0" to-layer="4035" to-port="0" />
		<edge from-layer="4035" from-port="1" to-layer="4038" to-port="0" />
		<edge from-layer="4036" from-port="0" to-layer="4037" to-port="0" />
		<edge from-layer="4037" from-port="1" to-layer="4038" to-port="1" />
		<edge from-layer="4038" from-port="2" to-layer="4040" to-port="0" />
		<edge from-layer="4039" from-port="0" to-layer="4040" to-port="1" />
		<edge from-layer="4040" from-port="2" to-layer="4041" to-port="0" />
		<edge from-layer="4041" from-port="1" to-layer="4042" to-port="1" />
		<edge from-layer="4042" from-port="2" to-layer="4044" to-port="0" />
		<edge from-layer="4043" from-port="0" to-layer="4044" to-port="1" />
		<edge from-layer="4044" from-port="2" to-layer="4046" to-port="0" />
		<edge from-layer="4044" from-port="2" to-layer="4057" to-port="0" />
		<edge from-layer="4045" from-port="0" to-layer="4573" to-port="1" />
		<edge from-layer="4045" from-port="0" to-layer="4311" to-port="1" />
		<edge from-layer="4045" from-port="0" to-layer="4581" to-port="1" />
		<edge from-layer="4045" from-port="0" to-layer="4319" to-port="1" />
		<edge from-layer="4045" from-port="0" to-layer="4048" to-port="1" />
		<edge from-layer="4045" from-port="0" to-layer="4057" to-port="1" />
		<edge from-layer="4046" from-port="1" to-layer="4048" to-port="0" />
		<edge from-layer="4047" from-port="0" to-layer="4048" to-port="2" />
		<edge from-layer="4047" from-port="0" to-layer="4052" to-port="1" />
		<edge from-layer="4048" from-port="3" to-layer="4050" to-port="0" />
		<edge from-layer="4048" from-port="3" to-layer="4051" to-port="0" />
		<edge from-layer="4049" from-port="0" to-layer="4574" to-port="1" />
		<edge from-layer="4049" from-port="0" to-layer="4051" to-port="1" />
		<edge from-layer="4049" from-port="0" to-layer="4050" to-port="1" />
		<edge from-layer="4049" from-port="0" to-layer="4313" to-port="1" />
		<edge from-layer="4049" from-port="0" to-layer="4312" to-port="1" />
		<edge from-layer="4049" from-port="0" to-layer="4575" to-port="1" />
		<edge from-layer="4050" from-port="2" to-layer="4054" to-port="0" />
		<edge from-layer="4051" from-port="2" to-layer="4052" to-port="0" />
		<edge from-layer="4052" from-port="2" to-layer="4053" to-port="0" />
		<edge from-layer="4053" from-port="1" to-layer="4054" to-port="1" />
		<edge from-layer="4054" from-port="2" to-layer="4056" to-port="0" />
		<edge from-layer="4055" from-port="0" to-layer="4056" to-port="1" />
		<edge from-layer="4056" from-port="2" to-layer="4057" to-port="2" />
		<edge from-layer="4057" from-port="4" to-layer="4058" to-port="0" />
		<edge from-layer="4057" from-port="3" to-layer="4059" to-port="0" />
		<edge from-layer="4058" from-port="1" to-layer="4059" to-port="1" />
		<edge from-layer="4059" from-port="2" to-layer="4068" to-port="0" />
		<edge from-layer="4060" from-port="0" to-layer="4061" to-port="0" />
		<edge from-layer="4061" from-port="1" to-layer="4064" to-port="0" />
		<edge from-layer="4062" from-port="0" to-layer="4063" to-port="0" />
		<edge from-layer="4063" from-port="1" to-layer="4064" to-port="1" />
		<edge from-layer="4064" from-port="2" to-layer="4066" to-port="0" />
		<edge from-layer="4065" from-port="0" to-layer="4066" to-port="1" />
		<edge from-layer="4066" from-port="2" to-layer="4067" to-port="0" />
		<edge from-layer="4067" from-port="1" to-layer="4068" to-port="1" />
		<edge from-layer="4068" from-port="2" to-layer="4070" to-port="0" />
		<edge from-layer="4069" from-port="0" to-layer="4070" to-port="1" />
		<edge from-layer="4070" from-port="2" to-layer="4071" to-port="0" />
		<edge from-layer="4071" from-port="2" to-layer="4078" to-port="0" />
		<edge from-layer="4072" from-port="1" to-layer="4075" to-port="0" />
		<edge from-layer="4073" from-port="0" to-layer="4075" to-port="1" />
		<edge from-layer="4074" from-port="0" to-layer="4075" to-port="2" />
		<edge from-layer="4075" from-port="3" to-layer="4077" to-port="0" />
		<edge from-layer="4076" from-port="0" to-layer="4077" to-port="1" />
		<edge from-layer="4077" from-port="2" to-layer="4078" to-port="1" />
		<edge from-layer="4078" from-port="2" to-layer="4080" to-port="0" />
		<edge from-layer="4079" from-port="0" to-layer="4080" to-port="1" />
		<edge from-layer="4080" from-port="2" to-layer="4089" to-port="0" />
		<edge from-layer="4081" from-port="0" to-layer="4082" to-port="0" />
		<edge from-layer="4082" from-port="1" to-layer="4085" to-port="0" />
		<edge from-layer="4083" from-port="0" to-layer="4084" to-port="0" />
		<edge from-layer="4084" from-port="1" to-layer="4085" to-port="1" />
		<edge from-layer="4085" from-port="2" to-layer="4087" to-port="0" />
		<edge from-layer="4086" from-port="0" to-layer="4087" to-port="1" />
		<edge from-layer="4087" from-port="2" to-layer="4088" to-port="0" />
		<edge from-layer="4088" from-port="1" to-layer="4089" to-port="1" />
		<edge from-layer="4089" from-port="2" to-layer="4091" to-port="0" />
		<edge from-layer="4090" from-port="0" to-layer="4091" to-port="1" />
		<edge from-layer="4091" from-port="2" to-layer="4092" to-port="0" />
		<edge from-layer="4092" from-port="2" to-layer="4093" to-port="0" />
		<edge from-layer="4093" from-port="2" to-layer="4102" to-port="0" />
		<edge from-layer="4093" from-port="2" to-layer="4107" to-port="0" />
		<edge from-layer="4094" from-port="0" to-layer="4095" to-port="0" />
		<edge from-layer="4095" from-port="1" to-layer="4098" to-port="0" />
		<edge from-layer="4096" from-port="0" to-layer="4097" to-port="0" />
		<edge from-layer="4097" from-port="1" to-layer="4098" to-port="1" />
		<edge from-layer="4098" from-port="2" to-layer="4100" to-port="0" />
		<edge from-layer="4099" from-port="0" to-layer="4100" to-port="1" />
		<edge from-layer="4100" from-port="2" to-layer="4101" to-port="0" />
		<edge from-layer="4101" from-port="1" to-layer="4102" to-port="1" />
		<edge from-layer="4102" from-port="2" to-layer="4104" to-port="0" />
		<edge from-layer="4103" from-port="0" to-layer="4104" to-port="1" />
		<edge from-layer="4104" from-port="2" to-layer="4149" to-port="0" />
		<edge from-layer="4105" from-port="0" to-layer="4107" to-port="1" />
		<edge from-layer="4106" from-port="0" to-layer="4107" to-port="2" />
		<edge from-layer="4107" from-port="3" to-layer="4108" to-port="0" />
		<edge from-layer="4108" from-port="1" to-layer="4117" to-port="0" />
		<edge from-layer="4109" from-port="0" to-layer="4110" to-port="0" />
		<edge from-layer="4110" from-port="1" to-layer="4113" to-port="0" />
		<edge from-layer="4111" from-port="0" to-layer="4112" to-port="0" />
		<edge from-layer="4112" from-port="1" to-layer="4113" to-port="1" />
		<edge from-layer="4113" from-port="2" to-layer="4115" to-port="0" />
		<edge from-layer="4114" from-port="0" to-layer="4115" to-port="1" />
		<edge from-layer="4115" from-port="2" to-layer="4116" to-port="0" />
		<edge from-layer="4116" from-port="1" to-layer="4117" to-port="1" />
		<edge from-layer="4117" from-port="2" to-layer="4119" to-port="0" />
		<edge from-layer="4118" from-port="0" to-layer="4119" to-port="1" />
		<edge from-layer="4119" from-port="2" to-layer="4133" to-port="0" />
		<edge from-layer="4120" from-port="0" to-layer="4121" to-port="0" />
		<edge from-layer="4121" from-port="1" to-layer="4124" to-port="0" />
		<edge from-layer="4122" from-port="0" to-layer="4123" to-port="0" />
		<edge from-layer="4123" from-port="1" to-layer="4124" to-port="1" />
		<edge from-layer="4124" from-port="2" to-layer="4126" to-port="0" />
		<edge from-layer="4125" from-port="0" to-layer="4126" to-port="1" />
		<edge from-layer="4126" from-port="2" to-layer="4127" to-port="0" />
		<edge from-layer="4127" from-port="1" to-layer="4128" to-port="1" />
		<edge from-layer="4128" from-port="2" to-layer="4130" to-port="0" />
		<edge from-layer="4129" from-port="0" to-layer="4130" to-port="1" />
		<edge from-layer="4130" from-port="2" to-layer="4131" to-port="0" />
		<edge from-layer="4131" from-port="2" to-layer="4132" to-port="0" />
		<edge from-layer="4132" from-port="2" to-layer="4133" to-port="1" />
		<edge from-layer="4133" from-port="2" to-layer="4136" to-port="0" />
		<edge from-layer="4134" from-port="0" to-layer="4136" to-port="1" />
		<edge from-layer="4135" from-port="0" to-layer="4136" to-port="2" />
		<edge from-layer="4136" from-port="3" to-layer="4137" to-port="0" />
		<edge from-layer="4137" from-port="1" to-layer="4146" to-port="0" />
		<edge from-layer="4138" from-port="0" to-layer="4139" to-port="0" />
		<edge from-layer="4139" from-port="1" to-layer="4142" to-port="0" />
		<edge from-layer="4140" from-port="0" to-layer="4141" to-port="0" />
		<edge from-layer="4141" from-port="1" to-layer="4142" to-port="1" />
		<edge from-layer="4142" from-port="2" to-layer="4144" to-port="0" />
		<edge from-layer="4143" from-port="0" to-layer="4144" to-port="1" />
		<edge from-layer="4144" from-port="2" to-layer="4145" to-port="0" />
		<edge from-layer="4145" from-port="1" to-layer="4146" to-port="1" />
		<edge from-layer="4146" from-port="2" to-layer="4148" to-port="0" />
		<edge from-layer="4147" from-port="0" to-layer="4148" to-port="1" />
		<edge from-layer="4148" from-port="2" to-layer="4149" to-port="1" />
		<edge from-layer="4149" from-port="2" to-layer="4152" to-port="0" />
		<edge from-layer="4149" from-port="2" to-layer="4354" to-port="1" />
		<edge from-layer="4149" from-port="2" to-layer="4334" to-port="0" />
		<edge from-layer="4150" from-port="0" to-layer="4152" to-port="1" />
		<edge from-layer="4151" from-port="0" to-layer="4152" to-port="2" />
		<edge from-layer="4152" from-port="3" to-layer="4161" to-port="0" />
		<edge from-layer="4153" from-port="0" to-layer="4154" to-port="0" />
		<edge from-layer="4154" from-port="1" to-layer="4157" to-port="0" />
		<edge from-layer="4155" from-port="0" to-layer="4156" to-port="0" />
		<edge from-layer="4156" from-port="1" to-layer="4157" to-port="1" />
		<edge from-layer="4157" from-port="2" to-layer="4159" to-port="0" />
		<edge from-layer="4158" from-port="0" to-layer="4159" to-port="1" />
		<edge from-layer="4159" from-port="2" to-layer="4160" to-port="0" />
		<edge from-layer="4160" from-port="1" to-layer="4161" to-port="1" />
		<edge from-layer="4161" from-port="2" to-layer="4163" to-port="0" />
		<edge from-layer="4162" from-port="0" to-layer="4163" to-port="1" />
		<edge from-layer="4163" from-port="2" to-layer="4165" to-port="0" />
		<edge from-layer="4164" from-port="0" to-layer="4165" to-port="1" />
		<edge from-layer="4165" from-port="2" to-layer="4167" to-port="0" />
		<edge from-layer="4166" from-port="0" to-layer="4167" to-port="1" />
		<edge from-layer="4167" from-port="2" to-layer="4229" to-port="1" />
		<edge from-layer="4167" from-port="2" to-layer="4169" to-port="0" />
		<edge from-layer="4168" from-port="0" to-layer="4169" to-port="1" />
		<edge from-layer="4169" from-port="2" to-layer="4171" to-port="0" />
		<edge from-layer="4170" from-port="0" to-layer="4171" to-port="1" />
		<edge from-layer="4171" from-port="2" to-layer="4173" to-port="0" />
		<edge from-layer="4172" from-port="0" to-layer="4173" to-port="1" />
		<edge from-layer="4173" from-port="2" to-layer="4208" to-port="0" />
		<edge from-layer="4173" from-port="2" to-layer="4195" to-port="0" />
		<edge from-layer="4173" from-port="2" to-layer="4182" to-port="0" />
		<edge from-layer="4174" from-port="0" to-layer="4175" to-port="0" />
		<edge from-layer="4175" from-port="1" to-layer="4178" to-port="0" />
		<edge from-layer="4176" from-port="0" to-layer="4177" to-port="0" />
		<edge from-layer="4177" from-port="1" to-layer="4178" to-port="1" />
		<edge from-layer="4178" from-port="2" to-layer="4180" to-port="0" />
		<edge from-layer="4179" from-port="0" to-layer="4180" to-port="1" />
		<edge from-layer="4180" from-port="2" to-layer="4181" to-port="0" />
		<edge from-layer="4181" from-port="1" to-layer="4182" to-port="1" />
		<edge from-layer="4182" from-port="2" to-layer="4184" to-port="0" />
		<edge from-layer="4183" from-port="0" to-layer="4184" to-port="1" />
		<edge from-layer="4184" from-port="2" to-layer="4186" to-port="0" />
		<edge from-layer="4185" from-port="0" to-layer="4186" to-port="1" />
		<edge from-layer="4186" from-port="2" to-layer="4213" to-port="0" />
		<edge from-layer="4187" from-port="0" to-layer="4188" to-port="0" />
		<edge from-layer="4188" from-port="1" to-layer="4191" to-port="0" />
		<edge from-layer="4189" from-port="0" to-layer="4190" to-port="0" />
		<edge from-layer="4190" from-port="1" to-layer="4191" to-port="1" />
		<edge from-layer="4191" from-port="2" to-layer="4193" to-port="0" />
		<edge from-layer="4192" from-port="0" to-layer="4193" to-port="1" />
		<edge from-layer="4193" from-port="2" to-layer="4194" to-port="0" />
		<edge from-layer="4194" from-port="1" to-layer="4195" to-port="1" />
		<edge from-layer="4195" from-port="2" to-layer="4197" to-port="0" />
		<edge from-layer="4196" from-port="0" to-layer="4197" to-port="1" />
		<edge from-layer="4197" from-port="2" to-layer="4199" to-port="0" />
		<edge from-layer="4198" from-port="0" to-layer="4199" to-port="1" />
		<edge from-layer="4199" from-port="2" to-layer="4213" to-port="1" />
		<edge from-layer="4200" from-port="0" to-layer="4201" to-port="0" />
		<edge from-layer="4201" from-port="1" to-layer="4204" to-port="0" />
		<edge from-layer="4202" from-port="0" to-layer="4203" to-port="0" />
		<edge from-layer="4203" from-port="1" to-layer="4204" to-port="1" />
		<edge from-layer="4204" from-port="2" to-layer="4206" to-port="0" />
		<edge from-layer="4205" from-port="0" to-layer="4206" to-port="1" />
		<edge from-layer="4206" from-port="2" to-layer="4207" to-port="0" />
		<edge from-layer="4207" from-port="1" to-layer="4208" to-port="1" />
		<edge from-layer="4208" from-port="2" to-layer="4210" to-port="0" />
		<edge from-layer="4209" from-port="0" to-layer="4210" to-port="1" />
		<edge from-layer="4210" from-port="2" to-layer="4212" to-port="0" />
		<edge from-layer="4211" from-port="0" to-layer="4212" to-port="1" />
		<edge from-layer="4212" from-port="2" to-layer="4213" to-port="2" />
		<edge from-layer="4213" from-port="3" to-layer="4215" to-port="0" />
		<edge from-layer="4214" from-port="0" to-layer="4215" to-port="1" />
		<edge from-layer="4215" from-port="2" to-layer="4217" to-port="0" />
		<edge from-layer="4216" from-port="0" to-layer="4217" to-port="1" />
		<edge from-layer="4217" from-port="2" to-layer="4226" to-port="0" />
		<edge from-layer="4218" from-port="0" to-layer="4219" to-port="0" />
		<edge from-layer="4219" from-port="1" to-layer="4222" to-port="0" />
		<edge from-layer="4220" from-port="0" to-layer="4221" to-port="0" />
		<edge from-layer="4221" from-port="1" to-layer="4222" to-port="1" />
		<edge from-layer="4222" from-port="2" to-layer="4224" to-port="0" />
		<edge from-layer="4223" from-port="0" to-layer="4224" to-port="1" />
		<edge from-layer="4224" from-port="2" to-layer="4225" to-port="0" />
		<edge from-layer="4225" from-port="1" to-layer="4226" to-port="1" />
		<edge from-layer="4226" from-port="2" to-layer="4228" to-port="0" />
		<edge from-layer="4227" from-port="0" to-layer="4228" to-port="1" />
		<edge from-layer="4228" from-port="2" to-layer="4229" to-port="0" />
		<edge from-layer="4229" from-port="2" to-layer="4291" to-port="1" />
		<edge from-layer="4229" from-port="2" to-layer="4231" to-port="0" />
		<edge from-layer="4230" from-port="0" to-layer="4231" to-port="1" />
		<edge from-layer="4231" from-port="2" to-layer="4233" to-port="0" />
		<edge from-layer="4232" from-port="0" to-layer="4233" to-port="1" />
		<edge from-layer="4233" from-port="2" to-layer="4235" to-port="0" />
		<edge from-layer="4234" from-port="0" to-layer="4235" to-port="1" />
		<edge from-layer="4235" from-port="2" to-layer="4244" to-port="0" />
		<edge from-layer="4236" from-port="0" to-layer="4237" to-port="0" />
		<edge from-layer="4237" from-port="1" to-layer="4240" to-port="0" />
		<edge from-layer="4238" from-port="0" to-layer="4239" to-port="0" />
		<edge from-layer="4239" from-port="1" to-layer="4240" to-port="1" />
		<edge from-layer="4240" from-port="2" to-layer="4242" to-port="0" />
		<edge from-layer="4241" from-port="0" to-layer="4242" to-port="1" />
		<edge from-layer="4242" from-port="2" to-layer="4243" to-port="0" />
		<edge from-layer="4243" from-port="1" to-layer="4244" to-port="1" />
		<edge from-layer="4244" from-port="2" to-layer="4246" to-port="0" />
		<edge from-layer="4245" from-port="0" to-layer="4246" to-port="1" />
		<edge from-layer="4246" from-port="2" to-layer="4248" to-port="0" />
		<edge from-layer="4247" from-port="0" to-layer="4248" to-port="1" />
		<edge from-layer="4248" from-port="2" to-layer="4275" to-port="0" />
		<edge from-layer="4249" from-port="0" to-layer="4250" to-port="0" />
		<edge from-layer="4250" from-port="1" to-layer="4253" to-port="0" />
		<edge from-layer="4251" from-port="0" to-layer="4252" to-port="0" />
		<edge from-layer="4252" from-port="1" to-layer="4253" to-port="1" />
		<edge from-layer="4253" from-port="2" to-layer="4255" to-port="0" />
		<edge from-layer="4254" from-port="0" to-layer="4255" to-port="1" />
		<edge from-layer="4255" from-port="2" to-layer="4256" to-port="0" />
		<edge from-layer="4256" from-port="1" to-layer="4257" to-port="1" />
		<edge from-layer="4257" from-port="2" to-layer="4259" to-port="0" />
		<edge from-layer="4258" from-port="0" to-layer="4259" to-port="1" />
		<edge from-layer="4259" from-port="2" to-layer="4261" to-port="0" />
		<edge from-layer="4260" from-port="0" to-layer="4261" to-port="1" />
		<edge from-layer="4261" from-port="2" to-layer="4275" to-port="1" />
		<edge from-layer="4262" from-port="0" to-layer="4263" to-port="0" />
		<edge from-layer="4263" from-port="1" to-layer="4266" to-port="0" />
		<edge from-layer="4264" from-port="0" to-layer="4265" to-port="0" />
		<edge from-layer="4265" from-port="1" to-layer="4266" to-port="1" />
		<edge from-layer="4266" from-port="2" to-layer="4268" to-port="0" />
		<edge from-layer="4267" from-port="0" to-layer="4268" to-port="1" />
		<edge from-layer="4268" from-port="2" to-layer="4269" to-port="0" />
		<edge from-layer="4269" from-port="1" to-layer="4270" to-port="1" />
		<edge from-layer="4270" from-port="2" to-layer="4272" to-port="0" />
		<edge from-layer="4271" from-port="0" to-layer="4272" to-port="1" />
		<edge from-layer="4272" from-port="2" to-layer="4274" to-port="0" />
		<edge from-layer="4273" from-port="0" to-layer="4274" to-port="1" />
		<edge from-layer="4274" from-port="2" to-layer="4275" to-port="2" />
		<edge from-layer="4275" from-port="3" to-layer="4277" to-port="0" />
		<edge from-layer="4276" from-port="0" to-layer="4277" to-port="1" />
		<edge from-layer="4277" from-port="2" to-layer="4279" to-port="0" />
		<edge from-layer="4278" from-port="0" to-layer="4279" to-port="1" />
		<edge from-layer="4279" from-port="2" to-layer="4288" to-port="0" />
		<edge from-layer="4280" from-port="0" to-layer="4281" to-port="0" />
		<edge from-layer="4281" from-port="1" to-layer="4284" to-port="0" />
		<edge from-layer="4282" from-port="0" to-layer="4283" to-port="0" />
		<edge from-layer="4283" from-port="1" to-layer="4284" to-port="1" />
		<edge from-layer="4284" from-port="2" to-layer="4286" to-port="0" />
		<edge from-layer="4285" from-port="0" to-layer="4286" to-port="1" />
		<edge from-layer="4286" from-port="2" to-layer="4287" to-port="0" />
		<edge from-layer="4287" from-port="1" to-layer="4288" to-port="1" />
		<edge from-layer="4288" from-port="2" to-layer="4290" to-port="0" />
		<edge from-layer="4289" from-port="0" to-layer="4290" to-port="1" />
		<edge from-layer="4290" from-port="2" to-layer="4291" to-port="0" />
		<edge from-layer="4291" from-port="2" to-layer="4333" to-port="1" />
		<edge from-layer="4291" from-port="2" to-layer="4293" to-port="0" />
		<edge from-layer="4292" from-port="0" to-layer="4293" to-port="1" />
		<edge from-layer="4293" from-port="2" to-layer="4295" to-port="0" />
		<edge from-layer="4294" from-port="0" to-layer="4295" to-port="1" />
		<edge from-layer="4295" from-port="2" to-layer="4297" to-port="0" />
		<edge from-layer="4296" from-port="0" to-layer="4297" to-port="1" />
		<edge from-layer="4297" from-port="2" to-layer="4306" to-port="0" />
		<edge from-layer="4298" from-port="0" to-layer="4299" to-port="0" />
		<edge from-layer="4299" from-port="1" to-layer="4302" to-port="0" />
		<edge from-layer="4300" from-port="0" to-layer="4301" to-port="0" />
		<edge from-layer="4301" from-port="1" to-layer="4302" to-port="1" />
		<edge from-layer="4302" from-port="2" to-layer="4304" to-port="0" />
		<edge from-layer="4303" from-port="0" to-layer="4304" to-port="1" />
		<edge from-layer="4304" from-port="2" to-layer="4305" to-port="0" />
		<edge from-layer="4305" from-port="1" to-layer="4306" to-port="1" />
		<edge from-layer="4306" from-port="2" to-layer="4308" to-port="0" />
		<edge from-layer="4307" from-port="0" to-layer="4308" to-port="1" />
		<edge from-layer="4308" from-port="2" to-layer="4309" to-port="0" />
		<edge from-layer="4308" from-port="2" to-layer="4319" to-port="0" />
		<edge from-layer="4309" from-port="1" to-layer="4311" to-port="0" />
		<edge from-layer="4310" from-port="0" to-layer="4314" to-port="1" />
		<edge from-layer="4310" from-port="0" to-layer="4311" to-port="2" />
		<edge from-layer="4311" from-port="3" to-layer="4313" to-port="0" />
		<edge from-layer="4311" from-port="3" to-layer="4312" to-port="0" />
		<edge from-layer="4312" from-port="2" to-layer="4316" to-port="0" />
		<edge from-layer="4313" from-port="2" to-layer="4314" to-port="0" />
		<edge from-layer="4314" from-port="2" to-layer="4315" to-port="0" />
		<edge from-layer="4315" from-port="1" to-layer="4316" to-port="1" />
		<edge from-layer="4316" from-port="2" to-layer="4318" to-port="0" />
		<edge from-layer="4317" from-port="0" to-layer="4318" to-port="1" />
		<edge from-layer="4318" from-port="2" to-layer="4319" to-port="2" />
		<edge from-layer="4319" from-port="4" to-layer="4320" to-port="0" />
		<edge from-layer="4319" from-port="3" to-layer="4321" to-port="0" />
		<edge from-layer="4320" from-port="1" to-layer="4321" to-port="1" />
		<edge from-layer="4321" from-port="2" to-layer="4330" to-port="0" />
		<edge from-layer="4322" from-port="0" to-layer="4323" to-port="0" />
		<edge from-layer="4323" from-port="1" to-layer="4326" to-port="0" />
		<edge from-layer="4324" from-port="0" to-layer="4325" to-port="0" />
		<edge from-layer="4325" from-port="1" to-layer="4326" to-port="1" />
		<edge from-layer="4326" from-port="2" to-layer="4328" to-port="0" />
		<edge from-layer="4327" from-port="0" to-layer="4328" to-port="1" />
		<edge from-layer="4328" from-port="2" to-layer="4329" to-port="0" />
		<edge from-layer="4329" from-port="1" to-layer="4330" to-port="1" />
		<edge from-layer="4330" from-port="2" to-layer="4332" to-port="0" />
		<edge from-layer="4331" from-port="0" to-layer="4332" to-port="1" />
		<edge from-layer="4332" from-port="2" to-layer="4333" to-port="0" />
		<edge from-layer="4333" from-port="2" to-layer="4340" to-port="0" />
		<edge from-layer="4334" from-port="1" to-layer="4337" to-port="0" />
		<edge from-layer="4335" from-port="0" to-layer="4337" to-port="1" />
		<edge from-layer="4336" from-port="0" to-layer="4337" to-port="2" />
		<edge from-layer="4337" from-port="3" to-layer="4339" to-port="0" />
		<edge from-layer="4338" from-port="0" to-layer="4339" to-port="1" />
		<edge from-layer="4339" from-port="2" to-layer="4340" to-port="1" />
		<edge from-layer="4340" from-port="2" to-layer="4342" to-port="0" />
		<edge from-layer="4341" from-port="0" to-layer="4342" to-port="1" />
		<edge from-layer="4342" from-port="2" to-layer="4351" to-port="0" />
		<edge from-layer="4343" from-port="0" to-layer="4344" to-port="0" />
		<edge from-layer="4344" from-port="1" to-layer="4347" to-port="0" />
		<edge from-layer="4345" from-port="0" to-layer="4346" to-port="0" />
		<edge from-layer="4346" from-port="1" to-layer="4347" to-port="1" />
		<edge from-layer="4347" from-port="2" to-layer="4349" to-port="0" />
		<edge from-layer="4348" from-port="0" to-layer="4349" to-port="1" />
		<edge from-layer="4349" from-port="2" to-layer="4350" to-port="0" />
		<edge from-layer="4350" from-port="1" to-layer="4351" to-port="1" />
		<edge from-layer="4351" from-port="2" to-layer="4353" to-port="0" />
		<edge from-layer="4352" from-port="0" to-layer="4353" to-port="1" />
		<edge from-layer="4353" from-port="2" to-layer="4354" to-port="0" />
		<edge from-layer="4354" from-port="2" to-layer="4355" to-port="0" />
		<edge from-layer="4355" from-port="2" to-layer="4364" to-port="0" />
		<edge from-layer="4355" from-port="2" to-layer="4369" to-port="0" />
		<edge from-layer="4356" from-port="0" to-layer="4357" to-port="0" />
		<edge from-layer="4357" from-port="1" to-layer="4360" to-port="0" />
		<edge from-layer="4358" from-port="0" to-layer="4359" to-port="0" />
		<edge from-layer="4359" from-port="1" to-layer="4360" to-port="1" />
		<edge from-layer="4360" from-port="2" to-layer="4362" to-port="0" />
		<edge from-layer="4361" from-port="0" to-layer="4362" to-port="1" />
		<edge from-layer="4362" from-port="2" to-layer="4363" to-port="0" />
		<edge from-layer="4363" from-port="1" to-layer="4364" to-port="1" />
		<edge from-layer="4364" from-port="2" to-layer="4366" to-port="0" />
		<edge from-layer="4365" from-port="0" to-layer="4366" to-port="1" />
		<edge from-layer="4366" from-port="2" to-layer="4411" to-port="0" />
		<edge from-layer="4367" from-port="0" to-layer="4369" to-port="1" />
		<edge from-layer="4368" from-port="0" to-layer="4369" to-port="2" />
		<edge from-layer="4369" from-port="3" to-layer="4370" to-port="0" />
		<edge from-layer="4370" from-port="1" to-layer="4379" to-port="0" />
		<edge from-layer="4371" from-port="0" to-layer="4372" to-port="0" />
		<edge from-layer="4372" from-port="1" to-layer="4375" to-port="0" />
		<edge from-layer="4373" from-port="0" to-layer="4374" to-port="0" />
		<edge from-layer="4374" from-port="1" to-layer="4375" to-port="1" />
		<edge from-layer="4375" from-port="2" to-layer="4377" to-port="0" />
		<edge from-layer="4376" from-port="0" to-layer="4377" to-port="1" />
		<edge from-layer="4377" from-port="2" to-layer="4378" to-port="0" />
		<edge from-layer="4378" from-port="1" to-layer="4379" to-port="1" />
		<edge from-layer="4379" from-port="2" to-layer="4381" to-port="0" />
		<edge from-layer="4380" from-port="0" to-layer="4381" to-port="1" />
		<edge from-layer="4381" from-port="2" to-layer="4395" to-port="0" />
		<edge from-layer="4382" from-port="0" to-layer="4383" to-port="0" />
		<edge from-layer="4383" from-port="1" to-layer="4386" to-port="0" />
		<edge from-layer="4384" from-port="0" to-layer="4385" to-port="0" />
		<edge from-layer="4385" from-port="1" to-layer="4386" to-port="1" />
		<edge from-layer="4386" from-port="2" to-layer="4388" to-port="0" />
		<edge from-layer="4387" from-port="0" to-layer="4388" to-port="1" />
		<edge from-layer="4388" from-port="2" to-layer="4389" to-port="0" />
		<edge from-layer="4389" from-port="1" to-layer="4390" to-port="1" />
		<edge from-layer="4390" from-port="2" to-layer="4392" to-port="0" />
		<edge from-layer="4391" from-port="0" to-layer="4392" to-port="1" />
		<edge from-layer="4392" from-port="2" to-layer="4393" to-port="0" />
		<edge from-layer="4393" from-port="2" to-layer="4394" to-port="0" />
		<edge from-layer="4394" from-port="2" to-layer="4395" to-port="1" />
		<edge from-layer="4395" from-port="2" to-layer="4398" to-port="0" />
		<edge from-layer="4396" from-port="0" to-layer="4398" to-port="1" />
		<edge from-layer="4397" from-port="0" to-layer="4398" to-port="2" />
		<edge from-layer="4398" from-port="3" to-layer="4399" to-port="0" />
		<edge from-layer="4399" from-port="1" to-layer="4408" to-port="0" />
		<edge from-layer="4400" from-port="0" to-layer="4401" to-port="0" />
		<edge from-layer="4401" from-port="1" to-layer="4404" to-port="0" />
		<edge from-layer="4402" from-port="0" to-layer="4403" to-port="0" />
		<edge from-layer="4403" from-port="1" to-layer="4404" to-port="1" />
		<edge from-layer="4404" from-port="2" to-layer="4406" to-port="0" />
		<edge from-layer="4405" from-port="0" to-layer="4406" to-port="1" />
		<edge from-layer="4406" from-port="2" to-layer="4407" to-port="0" />
		<edge from-layer="4407" from-port="1" to-layer="4408" to-port="1" />
		<edge from-layer="4408" from-port="2" to-layer="4410" to-port="0" />
		<edge from-layer="4409" from-port="0" to-layer="4410" to-port="1" />
		<edge from-layer="4410" from-port="2" to-layer="4411" to-port="1" />
		<edge from-layer="4411" from-port="2" to-layer="4596" to-port="0" />
		<edge from-layer="4411" from-port="2" to-layer="4414" to-port="0" />
		<edge from-layer="4411" from-port="2" to-layer="4616" to-port="1" />
		<edge from-layer="4412" from-port="0" to-layer="4414" to-port="1" />
		<edge from-layer="4413" from-port="0" to-layer="4414" to-port="2" />
		<edge from-layer="4414" from-port="3" to-layer="4423" to-port="0" />
		<edge from-layer="4415" from-port="0" to-layer="4416" to-port="0" />
		<edge from-layer="4416" from-port="1" to-layer="4419" to-port="0" />
		<edge from-layer="4417" from-port="0" to-layer="4418" to-port="0" />
		<edge from-layer="4418" from-port="1" to-layer="4419" to-port="1" />
		<edge from-layer="4419" from-port="2" to-layer="4421" to-port="0" />
		<edge from-layer="4420" from-port="0" to-layer="4421" to-port="1" />
		<edge from-layer="4421" from-port="2" to-layer="4422" to-port="0" />
		<edge from-layer="4422" from-port="1" to-layer="4423" to-port="1" />
		<edge from-layer="4423" from-port="2" to-layer="4425" to-port="0" />
		<edge from-layer="4424" from-port="0" to-layer="4425" to-port="1" />
		<edge from-layer="4425" from-port="2" to-layer="4427" to-port="0" />
		<edge from-layer="4426" from-port="0" to-layer="4427" to-port="1" />
		<edge from-layer="4427" from-port="2" to-layer="4429" to-port="0" />
		<edge from-layer="4428" from-port="0" to-layer="4429" to-port="1" />
		<edge from-layer="4429" from-port="2" to-layer="4491" to-port="1" />
		<edge from-layer="4429" from-port="2" to-layer="4431" to-port="0" />
		<edge from-layer="4430" from-port="0" to-layer="4431" to-port="1" />
		<edge from-layer="4431" from-port="2" to-layer="4433" to-port="0" />
		<edge from-layer="4432" from-port="0" to-layer="4433" to-port="1" />
		<edge from-layer="4433" from-port="2" to-layer="4435" to-port="0" />
		<edge from-layer="4434" from-port="0" to-layer="4435" to-port="1" />
		<edge from-layer="4435" from-port="2" to-layer="4444" to-port="0" />
		<edge from-layer="4435" from-port="2" to-layer="4470" to-port="0" />
		<edge from-layer="4435" from-port="2" to-layer="4457" to-port="0" />
		<edge from-layer="4436" from-port="0" to-layer="4437" to-port="0" />
		<edge from-layer="4437" from-port="1" to-layer="4440" to-port="0" />
		<edge from-layer="4438" from-port="0" to-layer="4439" to-port="0" />
		<edge from-layer="4439" from-port="1" to-layer="4440" to-port="1" />
		<edge from-layer="4440" from-port="2" to-layer="4442" to-port="0" />
		<edge from-layer="4441" from-port="0" to-layer="4442" to-port="1" />
		<edge from-layer="4442" from-port="2" to-layer="4443" to-port="0" />
		<edge from-layer="4443" from-port="1" to-layer="4444" to-port="1" />
		<edge from-layer="4444" from-port="2" to-layer="4446" to-port="0" />
		<edge from-layer="4445" from-port="0" to-layer="4446" to-port="1" />
		<edge from-layer="4446" from-port="2" to-layer="4448" to-port="0" />
		<edge from-layer="4447" from-port="0" to-layer="4448" to-port="1" />
		<edge from-layer="4448" from-port="2" to-layer="4475" to-port="0" />
		<edge from-layer="4449" from-port="0" to-layer="4450" to-port="0" />
		<edge from-layer="4450" from-port="1" to-layer="4453" to-port="0" />
		<edge from-layer="4451" from-port="0" to-layer="4452" to-port="0" />
		<edge from-layer="4452" from-port="1" to-layer="4453" to-port="1" />
		<edge from-layer="4453" from-port="2" to-layer="4455" to-port="0" />
		<edge from-layer="4454" from-port="0" to-layer="4455" to-port="1" />
		<edge from-layer="4455" from-port="2" to-layer="4456" to-port="0" />
		<edge from-layer="4456" from-port="1" to-layer="4457" to-port="1" />
		<edge from-layer="4457" from-port="2" to-layer="4459" to-port="0" />
		<edge from-layer="4458" from-port="0" to-layer="4459" to-port="1" />
		<edge from-layer="4459" from-port="2" to-layer="4461" to-port="0" />
		<edge from-layer="4460" from-port="0" to-layer="4461" to-port="1" />
		<edge from-layer="4461" from-port="2" to-layer="4475" to-port="1" />
		<edge from-layer="4462" from-port="0" to-layer="4463" to-port="0" />
		<edge from-layer="4463" from-port="1" to-layer="4466" to-port="0" />
		<edge from-layer="4464" from-port="0" to-layer="4465" to-port="0" />
		<edge from-layer="4465" from-port="1" to-layer="4466" to-port="1" />
		<edge from-layer="4466" from-port="2" to-layer="4468" to-port="0" />
		<edge from-layer="4467" from-port="0" to-layer="4468" to-port="1" />
		<edge from-layer="4468" from-port="2" to-layer="4469" to-port="0" />
		<edge from-layer="4469" from-port="1" to-layer="4470" to-port="1" />
		<edge from-layer="4470" from-port="2" to-layer="4472" to-port="0" />
		<edge from-layer="4471" from-port="0" to-layer="4472" to-port="1" />
		<edge from-layer="4472" from-port="2" to-layer="4474" to-port="0" />
		<edge from-layer="4473" from-port="0" to-layer="4474" to-port="1" />
		<edge from-layer="4474" from-port="2" to-layer="4475" to-port="2" />
		<edge from-layer="4475" from-port="3" to-layer="4477" to-port="0" />
		<edge from-layer="4476" from-port="0" to-layer="4477" to-port="1" />
		<edge from-layer="4477" from-port="2" to-layer="4479" to-port="0" />
		<edge from-layer="4478" from-port="0" to-layer="4479" to-port="1" />
		<edge from-layer="4479" from-port="2" to-layer="4488" to-port="0" />
		<edge from-layer="4480" from-port="0" to-layer="4481" to-port="0" />
		<edge from-layer="4481" from-port="1" to-layer="4484" to-port="0" />
		<edge from-layer="4482" from-port="0" to-layer="4483" to-port="0" />
		<edge from-layer="4483" from-port="1" to-layer="4484" to-port="1" />
		<edge from-layer="4484" from-port="2" to-layer="4486" to-port="0" />
		<edge from-layer="4485" from-port="0" to-layer="4486" to-port="1" />
		<edge from-layer="4486" from-port="2" to-layer="4487" to-port="0" />
		<edge from-layer="4487" from-port="1" to-layer="4488" to-port="1" />
		<edge from-layer="4488" from-port="2" to-layer="4490" to-port="0" />
		<edge from-layer="4489" from-port="0" to-layer="4490" to-port="1" />
		<edge from-layer="4490" from-port="2" to-layer="4491" to-port="0" />
		<edge from-layer="4491" from-port="2" to-layer="4493" to-port="0" />
		<edge from-layer="4491" from-port="2" to-layer="4553" to-port="1" />
		<edge from-layer="4492" from-port="0" to-layer="4493" to-port="1" />
		<edge from-layer="4493" from-port="2" to-layer="4495" to-port="0" />
		<edge from-layer="4494" from-port="0" to-layer="4495" to-port="1" />
		<edge from-layer="4495" from-port="2" to-layer="4497" to-port="0" />
		<edge from-layer="4496" from-port="0" to-layer="4497" to-port="1" />
		<edge from-layer="4497" from-port="2" to-layer="4506" to-port="0" />
		<edge from-layer="4498" from-port="0" to-layer="4499" to-port="0" />
		<edge from-layer="4499" from-port="1" to-layer="4502" to-port="0" />
		<edge from-layer="4500" from-port="0" to-layer="4501" to-port="0" />
		<edge from-layer="4501" from-port="1" to-layer="4502" to-port="1" />
		<edge from-layer="4502" from-port="2" to-layer="4504" to-port="0" />
		<edge from-layer="4503" from-port="0" to-layer="4504" to-port="1" />
		<edge from-layer="4504" from-port="2" to-layer="4505" to-port="0" />
		<edge from-layer="4505" from-port="1" to-layer="4506" to-port="1" />
		<edge from-layer="4506" from-port="2" to-layer="4508" to-port="0" />
		<edge from-layer="4507" from-port="0" to-layer="4508" to-port="1" />
		<edge from-layer="4508" from-port="2" to-layer="4510" to-port="0" />
		<edge from-layer="4509" from-port="0" to-layer="4510" to-port="1" />
		<edge from-layer="4510" from-port="2" to-layer="4537" to-port="0" />
		<edge from-layer="4511" from-port="0" to-layer="4512" to-port="0" />
		<edge from-layer="4512" from-port="1" to-layer="4515" to-port="0" />
		<edge from-layer="4513" from-port="0" to-layer="4514" to-port="0" />
		<edge from-layer="4514" from-port="1" to-layer="4515" to-port="1" />
		<edge from-layer="4515" from-port="2" to-layer="4517" to-port="0" />
		<edge from-layer="4516" from-port="0" to-layer="4517" to-port="1" />
		<edge from-layer="4517" from-port="2" to-layer="4518" to-port="0" />
		<edge from-layer="4518" from-port="1" to-layer="4519" to-port="1" />
		<edge from-layer="4519" from-port="2" to-layer="4521" to-port="0" />
		<edge from-layer="4520" from-port="0" to-layer="4521" to-port="1" />
		<edge from-layer="4521" from-port="2" to-layer="4523" to-port="0" />
		<edge from-layer="4522" from-port="0" to-layer="4523" to-port="1" />
		<edge from-layer="4523" from-port="2" to-layer="4537" to-port="1" />
		<edge from-layer="4524" from-port="0" to-layer="4525" to-port="0" />
		<edge from-layer="4525" from-port="1" to-layer="4528" to-port="0" />
		<edge from-layer="4526" from-port="0" to-layer="4527" to-port="0" />
		<edge from-layer="4527" from-port="1" to-layer="4528" to-port="1" />
		<edge from-layer="4528" from-port="2" to-layer="4530" to-port="0" />
		<edge from-layer="4529" from-port="0" to-layer="4530" to-port="1" />
		<edge from-layer="4530" from-port="2" to-layer="4531" to-port="0" />
		<edge from-layer="4531" from-port="1" to-layer="4532" to-port="1" />
		<edge from-layer="4532" from-port="2" to-layer="4534" to-port="0" />
		<edge from-layer="4533" from-port="0" to-layer="4534" to-port="1" />
		<edge from-layer="4534" from-port="2" to-layer="4536" to-port="0" />
		<edge from-layer="4535" from-port="0" to-layer="4536" to-port="1" />
		<edge from-layer="4536" from-port="2" to-layer="4537" to-port="2" />
		<edge from-layer="4537" from-port="3" to-layer="4539" to-port="0" />
		<edge from-layer="4538" from-port="0" to-layer="4539" to-port="1" />
		<edge from-layer="4539" from-port="2" to-layer="4541" to-port="0" />
		<edge from-layer="4540" from-port="0" to-layer="4541" to-port="1" />
		<edge from-layer="4541" from-port="2" to-layer="4550" to-port="0" />
		<edge from-layer="4542" from-port="0" to-layer="4543" to-port="0" />
		<edge from-layer="4543" from-port="1" to-layer="4546" to-port="0" />
		<edge from-layer="4544" from-port="0" to-layer="4545" to-port="0" />
		<edge from-layer="4545" from-port="1" to-layer="4546" to-port="1" />
		<edge from-layer="4546" from-port="2" to-layer="4548" to-port="0" />
		<edge from-layer="4547" from-port="0" to-layer="4548" to-port="1" />
		<edge from-layer="4548" from-port="2" to-layer="4549" to-port="0" />
		<edge from-layer="4549" from-port="1" to-layer="4550" to-port="1" />
		<edge from-layer="4550" from-port="2" to-layer="4552" to-port="0" />
		<edge from-layer="4551" from-port="0" to-layer="4552" to-port="1" />
		<edge from-layer="4552" from-port="2" to-layer="4553" to-port="0" />
		<edge from-layer="4553" from-port="2" to-layer="4555" to-port="0" />
		<edge from-layer="4553" from-port="2" to-layer="4595" to-port="1" />
		<edge from-layer="4554" from-port="0" to-layer="4555" to-port="1" />
		<edge from-layer="4555" from-port="2" to-layer="4557" to-port="0" />
		<edge from-layer="4556" from-port="0" to-layer="4557" to-port="1" />
		<edge from-layer="4557" from-port="2" to-layer="4559" to-port="0" />
		<edge from-layer="4558" from-port="0" to-layer="4559" to-port="1" />
		<edge from-layer="4559" from-port="2" to-layer="4568" to-port="0" />
		<edge from-layer="4560" from-port="0" to-layer="4561" to-port="0" />
		<edge from-layer="4561" from-port="1" to-layer="4564" to-port="0" />
		<edge from-layer="4562" from-port="0" to-layer="4563" to-port="0" />
		<edge from-layer="4563" from-port="1" to-layer="4564" to-port="1" />
		<edge from-layer="4564" from-port="2" to-layer="4566" to-port="0" />
		<edge from-layer="4565" from-port="0" to-layer="4566" to-port="1" />
		<edge from-layer="4566" from-port="2" to-layer="4567" to-port="0" />
		<edge from-layer="4567" from-port="1" to-layer="4568" to-port="1" />
		<edge from-layer="4568" from-port="2" to-layer="4570" to-port="0" />
		<edge from-layer="4569" from-port="0" to-layer="4570" to-port="1" />
		<edge from-layer="4570" from-port="2" to-layer="4571" to-port="0" />
		<edge from-layer="4570" from-port="2" to-layer="4581" to-port="0" />
		<edge from-layer="4571" from-port="1" to-layer="4573" to-port="0" />
		<edge from-layer="4572" from-port="0" to-layer="4573" to-port="2" />
		<edge from-layer="4572" from-port="0" to-layer="4576" to-port="1" />
		<edge from-layer="4573" from-port="3" to-layer="4575" to-port="0" />
		<edge from-layer="4573" from-port="3" to-layer="4574" to-port="0" />
		<edge from-layer="4574" from-port="2" to-layer="4578" to-port="0" />
		<edge from-layer="4575" from-port="2" to-layer="4576" to-port="0" />
		<edge from-layer="4576" from-port="2" to-layer="4577" to-port="0" />
		<edge from-layer="4577" from-port="1" to-layer="4578" to-port="1" />
		<edge from-layer="4578" from-port="2" to-layer="4580" to-port="0" />
		<edge from-layer="4579" from-port="0" to-layer="4580" to-port="1" />
		<edge from-layer="4580" from-port="2" to-layer="4581" to-port="2" />
		<edge from-layer="4581" from-port="3" to-layer="4583" to-port="0" />
		<edge from-layer="4581" from-port="4" to-layer="4582" to-port="0" />
		<edge from-layer="4582" from-port="1" to-layer="4583" to-port="1" />
		<edge from-layer="4583" from-port="2" to-layer="4592" to-port="0" />
		<edge from-layer="4584" from-port="0" to-layer="4585" to-port="0" />
		<edge from-layer="4585" from-port="1" to-layer="4588" to-port="0" />
		<edge from-layer="4586" from-port="0" to-layer="4587" to-port="0" />
		<edge from-layer="4587" from-port="1" to-layer="4588" to-port="1" />
		<edge from-layer="4588" from-port="2" to-layer="4590" to-port="0" />
		<edge from-layer="4589" from-port="0" to-layer="4590" to-port="1" />
		<edge from-layer="4590" from-port="2" to-layer="4591" to-port="0" />
		<edge from-layer="4591" from-port="1" to-layer="4592" to-port="1" />
		<edge from-layer="4592" from-port="2" to-layer="4594" to-port="0" />
		<edge from-layer="4593" from-port="0" to-layer="4594" to-port="1" />
		<edge from-layer="4594" from-port="2" to-layer="4595" to-port="0" />
		<edge from-layer="4595" from-port="2" to-layer="4602" to-port="0" />
		<edge from-layer="4596" from-port="1" to-layer="4599" to-port="0" />
		<edge from-layer="4597" from-port="0" to-layer="4599" to-port="1" />
		<edge from-layer="4598" from-port="0" to-layer="4599" to-port="2" />
		<edge from-layer="4599" from-port="3" to-layer="4601" to-port="0" />
		<edge from-layer="4600" from-port="0" to-layer="4601" to-port="1" />
		<edge from-layer="4601" from-port="2" to-layer="4602" to-port="1" />
		<edge from-layer="4602" from-port="2" to-layer="4604" to-port="0" />
		<edge from-layer="4603" from-port="0" to-layer="4604" to-port="1" />
		<edge from-layer="4604" from-port="2" to-layer="4613" to-port="0" />
		<edge from-layer="4605" from-port="0" to-layer="4606" to-port="0" />
		<edge from-layer="4606" from-port="1" to-layer="4609" to-port="0" />
		<edge from-layer="4607" from-port="0" to-layer="4608" to-port="0" />
		<edge from-layer="4608" from-port="1" to-layer="4609" to-port="1" />
		<edge from-layer="4609" from-port="2" to-layer="4611" to-port="0" />
		<edge from-layer="4610" from-port="0" to-layer="4611" to-port="1" />
		<edge from-layer="4611" from-port="2" to-layer="4612" to-port="0" />
		<edge from-layer="4612" from-port="1" to-layer="4613" to-port="1" />
		<edge from-layer="4613" from-port="2" to-layer="4615" to-port="0" />
		<edge from-layer="4614" from-port="0" to-layer="4615" to-port="1" />
		<edge from-layer="4615" from-port="2" to-layer="4616" to-port="0" />
		<edge from-layer="4616" from-port="2" to-layer="4619" to-port="0" />
		<edge from-layer="4617" from-port="0" to-layer="4619" to-port="1" />
		<edge from-layer="4618" from-port="0" to-layer="4619" to-port="2" />
		<edge from-layer="4619" from-port="3" to-layer="4620" to-port="0" />
		<edge from-layer="4620" from-port="1" to-layer="4629" to-port="0" />
		<edge from-layer="4621" from-port="0" to-layer="4622" to-port="0" />
		<edge from-layer="4622" from-port="1" to-layer="4625" to-port="0" />
		<edge from-layer="4623" from-port="0" to-layer="4624" to-port="0" />
		<edge from-layer="4624" from-port="1" to-layer="4625" to-port="1" />
		<edge from-layer="4625" from-port="2" to-layer="4627" to-port="0" />
		<edge from-layer="4626" from-port="0" to-layer="4627" to-port="1" />
		<edge from-layer="4627" from-port="2" to-layer="4628" to-port="0" />
		<edge from-layer="4628" from-port="1" to-layer="4629" to-port="1" />
		<edge from-layer="4629" from-port="2" to-layer="4631" to-port="0" />
		<edge from-layer="4630" from-port="0" to-layer="4631" to-port="1" />
		<edge from-layer="4631" from-port="2" to-layer="4632" to-port="0" />
	</edges>
	<rt_info>
		<Runtime_version value="2025.2.0-19140-c01cd93e24d-releases/2025/2" />
		<conversion_parameters>
			<framework value="pytorch" />
			<is_python_object value="True" />
		</conversion_parameters>
		<nncf>
			<friendly_names_were_updated value="True" />
			<version value="2.18.0.dev0+2c793629" />
			<weight_compression>
				<advanced_parameters value="{'statistics_path': None, 'lora_adapter_rank': 256, 'group_size_fallback_mode': 'ignore', 'min_adjusted_group_size': 16, 'awq_params': {'subset_size': 32, 'percent_to_apply': 0.002, 'alpha_min': 0.0, 'alpha_max': 1.0, 'steps': 100, 'prefer_data_aware_scaling': True}, 'scale_estimation_params': {'subset_size': 64, 'initial_steps': 5, 'scale_steps': 5, 'weight_penalty': -1.0}, 'gptq_params': {'damp_percent': 0.1, 'block_size': 128, 'subset_size': 128}, 'lora_correction_params': {'adapter_rank': 8, 'num_iterations': 3, 'apply_regularization': True, 'subset_size': 128, 'use_int8_adapters': True}, 'backend_params': {}, 'codebook': None}" />
				<all_layers value="False" />
				<awq value="False" />
				<backup_mode value="int8_asym" />
				<compression_format value="dequantize" />
				<gptq value="False" />
				<group_size value="-1" />
				<ignored_scope value="[]" />
				<lora_correction value="False" />
				<mode value="int8_asym" />
				<ratio value="1.0" />
				<scale_estimation value="False" />
				<sensitivity_metric value="weight_quantization_error" />
			</weight_compression>
		</nncf>
		<optimum>
			<diffusers_version value="0.34.0" />
			<nncf_version value="2.18.0.dev0+2c793629" />
			<optimum_intel_version value="1.26.0.dev0+0b8cc90" />
			<optimum_version value="1.27.0" />
			<pytorch_version value="2.7.1+cpu" />
			<transformers_version value="4.53.3" />
		</optimum>
	</rt_info>
</net>
